Neural_Salary_Model.pth (torch, 990480 bytes, 7 tensors)

Linear1.weight f4 [128, 1668]
000000 73 40 1d 3e a2 98 a2 3d db 0e cb bd ed 81 6d bd
       0.15356617 0.07939269 -0.09914943 -0.057985235
000010 f7 ea 41 bd c3 a5 6a be 16 b8 23 be a6 a6 66 bd
       -0.04734322 -0.22914796 -0.15988192 -0.056311272
000020 84 8b 57 bd 26 9e 98 bc bd 16 1a bd 09 3a c5 3d
       -0.052623287 -0.018630099 -0.03761934 0.0963021
000030 a7 52 16 3e af 4c 5c bd 4c c4 ac 3d 2a c5 84 bd
       0.14679967 -0.05378407 0.08435878 -0.064829186
000040 40 2b 34 3b 3a 8e 22 3d 72 40 e2 3d 77 45 df 3c
       0.00274916 0.03968642 0.11047448 0.027254803
000050 48 b6 b4 3d 39 79 4f ba f7 82 25 be fa ac bd bc
       0.0882383 -0.0007914487 -0.1616324 -0.02315377
000060 97 90 3c 3e b7 77 24 bd d1 ba ef 3c 21 69 47 bd
       0.18414532 -0.04015323 0.029263886 -0.048684243
000070 29 8e b1 bd 9b cb 45 3c 13 fc dc 3c 06 5b 62 3c
       -0.08669693 0.012072469 0.026975667 0.013815647
000080 00 ad af bc 44 d4 b8 bc 09 f4 a5 bb b2 c7 45 bd
       -0.021444798 -0.022562154 -0.0050644916 -0.048286147
000090 20 d1 cb bc 72 38 99 3d 23 09 8c 3c 6a c2 d0 3c
       -0.024879992 0.07481469 0.0170942 0.025483329
0000a0 b3 36 f1 3d 74 4e 9c 3d df 30 82 3d 8d 78 18 bb
       0.11778011 0.07632151 0.06356978 -0.0023265213
0000b0 ce 3d 36 bd a0 7e af 3d c3 6e 5d bd 1b a7 a3 3c
       -0.044492535 0.08569074 -0.05406071 0.019977143
0000c0 d1 3a 49 3d 49 25 41 3e d8 5a 0d 3d b6 04 b6 bc
       0.049128357 0.1886188 0.034510463 -0.022219043
0000d0 08 40 82 bc bc b2 83 3c ff af 26 3d 15 53 79 3e
       -0.015899673 0.016076438 0.040695187 0.243481
0000e0 90 66 ac 3d d7 4e f0 3b b9 08 11 bc bd 49 25 3c
       0.08418 0.007333617 -0.008852177 0.010088381
0000f0 22 6d 20 3e 3f 94 9b 3d ec 28 87 3d 5c 69 22 3e
       0.15666631 0.07596635 0.06599602 0.15860504
000100 16 a1 5c bc 33 5d 40 bd 57 8a 72 3d 69 a6 1e 3e
       -0.01346614 -0.04696388 0.059213962 0.15493168
000110 c3 a3 6c bc 67 0f 9c bd 55 c1 89 bd 04 e2 41 bd
       -0.014443341 -0.07620125 -0.06726328 -0.047334686
000120 ee 54 50 3d 98 b5 b3 3d b9 1c 09 3c 48 3f 29 3d
       0.050862245 0.08774871 0.008368664 0.041320115
000130 fc aa c5 3c 2e 06 02 bd 87 c6 ad 3c 76 bb 47 39
       0.024129383 -0.031744175 0.02121283 0.00019047954
000140 a3 bc 2f bd b7 9d 07 bc 85 8e 51 3c e8 c0 9c 3d
       -0.042904507 -0.008277348 0.012790327 0.076539814
000150 63 f5 b4 3c ad b0 64 bd 90 ee 15 bd 4c 07 de 3d
       0.022089666 -0.055832554 -0.036604464 0.108412355
000160 7a 93 7d bd e9 97 c3 3d 98 f0 21 bd 24 e1 17 3e
       -0.061908223 0.09550459 -0.03953609 0.14831978
000170 0f bd 31 bd 3c b5 5b bc 9b d9 90 3e 40 9d 65 3d
       -0.04339319 -0.013409909 0.2829102 0.05605817
000180 93 01 1d 3d 42 eb 54 ba 01 bd ed 3b a9 6c e0 3d
       0.03833158 -0.00081222143 0.007255197 0.10958225
000190 b0 b2 8f bc 92 77 28 bd 0b 84 ae bc 76 f4 05 3b
       -0.01754126 -0.041129656 -0.021303197 0.00204399
0001a0 34 4e 8a 3c a2 ec 92 bc 61 cc 66 bd 87 1f 3b bd
       0.016882993 -0.017935101 -0.056347255 -0.045684364
0001b0 5a 62 fd 3d dc 89 37 3d 4c 95 a4 bd 5c 02 98 3c
       0.12372275 0.044809207 -0.080362886 0.018555813
0001c0 d5 68 10 3e 61 3b 8a bc 76 7d 85 bd 4e 63 df 3c
       0.1410249 -0.016874017 -0.065180704 0.027269032
0001d0 32 bc f9 bc 22 98 e7 3c 9a e9 0e 3d 87 56 3b bd
       -0.030485246 0.028270785 0.03489075 -0.045736816
0001e0 e2 cd 96 3d 74 fb 3c bb 11 a6 1e 3b a4 1a 01 3d
       0.07363488 -0.0028836401 0.002420787 0.031519547
0001f0 47 cd 16 3c af 2c 84 3b 0d 38 26 bd a3 ee 28 3e
       0.009204215 0.004033647 -0.040580798 0.16497283
000200 b1 c9 8a ba d1 02 65 bd 44 8e 00 3a ff 59 95 bd
       -0.0010588673 -0.05591089 0.0004904012 -0.07292556
000210 d1 5c 1a 3e 07 c6 5e 3d 26 9f ac 3d c5 d1 d2 3d
       0.15074469 0.054388072 0.08428793 0.102939166
000220 44 51 e8 3d 43 32 5d 3d e6 c7 c5 3c 7a 41 24 3d
       0.11343625 0.05400301 0.02414317 0.040101506
000230 c3 76 45 3c 94 54 37 bc b5 f5 74 bc fd 04 50 bd
       0.012052241 -0.011189599 -0.014951159 -0.050786007
000240 f6 20 5a bd 86 56 f5 bc 4a 14 a4 3d a8 74 52 bd
       -0.05325409 -0.029948484 0.08011682 -0.051380783
000250 67 93 7f bb a6 e7 11 be ae af f2 3d b6 8f c4 bc
       -0.003899777 -0.14248523 0.118499145 -0.023994308
000260 b8 ba c1 3c d2 66 d8 bb ad b9 89 3d 5e e7 d6 bc
       0.023648605 -0.006604054 0.06724868 -0.026233371
000270 99 8c f5 3c 9c e4 7b 3d ba 88 a6 bd 64 6d 9a bc
       0.029974269 0.061497316 -0.08131547 -0.01885099
000280 2c 67 69 3d 63 60 23 3e 66 63 5b 3d bf 1f ac bb
       0.056983158 0.15954737 0.05356159 -0.005252808
000290 60 38 9e bd 4e d5 26 bd 52 be 4d bd c8 e7 80 bd
       -0.077255964 -0.040730767 -0.05023033 -0.06294209
0002a0 41 e1 82 be 8c 22 0c bd 06 09 4b bc e1 21 2d 3c
       -0.2556248 -0.034212634 -0.012392288 0.010567159
0002b0 6c 29 6c 3d 01 c7 5e 3d 50 3c 28 bb f1 7b 0c 3d
       0.05765669 0.054389004 -0.0025670715 0.034297887
0002c0 cd 0b 26 3e bd 48 ae 3c d5 e3 16 3d b1 d5 7e 3d
       0.16215439 0.021274919 0.03683837 0.06221551
0002d0 39 7f 93 bd 40 73 e4 bb fb 69 88 bb 39 cc 1b bd
       -0.07202 -0.0069717467 -0.0041630245 -0.03803656
0002e0 e7 41 bf 3c 7e 3d 54 3d 1c 6b 31 bc da b6 f5 3d
       0.023346854 0.051816456 -0.0108287595 0.11997767
0002f0 57 34 01 3d cc 44 97 3c 14 3b c8 bc 2b c5 43 3e
       0.031544056 0.018465422 -0.024442233 0.19118182
000300 66 5e 91 3d 31 18 4b 3d 76 23 c0 ba 4c 42 63 bd
       0.07098083 0.049583618 -0.0014659006 -0.055483148
000310 02 8d 0b 3d 22 84 00 bc 07 4d 8a 3d a9 98 d8 bd
       0.034070022 -0.007844003 0.06752973 -0.105759926
000320 bc bb 2f bd b4 40 5c ba d4 d5 7e bc d5 51 95 bd
       -0.042903647 -0.00084019755 -0.01555391 -0.07290999
000330 23 61 83 bd de 2a 15 bd e6 32 24 3d 12 cf 5b bc
       -0.06415012 -0.036417834 0.040087603 -0.013416069
000340 53 d1 00 3c db ee 0c bd 88 53 f5 bc 42 0a 1b bb
       0.007862407 -0.034407478 -0.029947057 -0.0023657237
000350 34 17 21 3e 47 4b da 3c 50 0b 09 3d a4 76 8a bc
       0.15731508 0.026647223 0.033458054 -0.016902275
000360 85 eb b8 bc 49 54 65 3d a8 2f 54 3d f6 01 c0 3c
       -0.022573242 0.055988584 0.05180326 0.023438435
000370 33 ec d0 bd 17 c3 5d bd 14 54 49 3d 53 81 aa ba
       -0.102013014 -0.05414113 0.04915245 -0.0013008512
000380 cf fa 80 3c c3 35 23 bc ed 20 38 3e df 5d 33 3c
       0.015744595 -0.009961548 0.1798131 0.010947674
000390 05 e7 30 3d eb 3d 35 3d 74 97 0a 3c 31 48 bd 3c
       0.043189067 0.044248503 0.008458961 0.023105713
0003a0 e9 90 df 3b 4f f9 66 3d d8 a4 68 3b 7a 04 54 bd
       0.0068226946 0.056390103 0.0035498645 -0.05176208
0003b0 5f 92 1e 3c 03 17 94 3a 49 43 bf 3d 9f a3 66 3c
       0.009678452 0.0011298362 0.093390055 0.014077096
0003c0 8c e0 05 3e 69 13 29 3a 5c 31 6a bb f6 cc 9c 3d
       0.13073939 0.0006449731 -0.0035734987 0.07656281
0003d0 ea 15 42 be b3 36 30 bd 4a 4c ca bc c2 24 5a 3d
       -0.18953672 -0.043020915 -0.02469458 0.05325771
0003e0 73 b4 ea 3c ab 78 3d 3d 99 8d 5f bd 9f a2 d7 bc
       0.028650498 0.046257656 -0.054578397 -0.026322661
0003f0 44 32 1d bd 15 6e b7 3b 21 26 02 bd 77 6e eb bd
       -0.038378015 0.0055978396 -0.031774644 -0.11495679

Linear1.bias f4 [128]
000000 fe 33 23 bd db 52 84 bc aa fe 5c bc 12 90 80 bc
       -0.039844505 -0.01615279 -0.013488451 -0.015693698
000010 77 24 46 bd b6 f9 b7 bc fb 8c a9 bc 62 d9 b3 bc
       -0.04837462 -0.022457939 -0.020697108 -0.021954242
000020 b8 0e 26 bd bf 0a 18 3c 07 d7 cd bc 2e f4 b5 3b
       -0.04054138 0.009279906 -0.025126947 0.00555279
000030 c3 85 b4 bc 23 48 42 bc 5d 49 c4 3a ea 0c 22 bb
       -0.022036439 -0.011858019 0.0014975477 -0.0024726936
000040 ce e9 34 bd 10 d7 dd 3b 26 da 11 bd f4 f7 4c bc
       -0.044168286 0.006770022 -0.035608433 -0.0125102885
000050 12 05 92 3c d8 d7 2f bd ab 5c 0c bd 34 62 b9 bb
       0.017824683 -0.042930454 -0.034268063 -0.0056574587
000060 2d 19 aa bc 55 54 a4 bb 52 64 99 bb 48 9f 3a bc
       -0.020763958 -0.005014936 -0.0046811486 -0.011390515
000070 d5 8d 0c 3c e3 cc 8d bc dd 14 24 bd eb ee af bc
       0.008578737 -0.017309612 -0.04005896 -0.02147623
000080 6b 91 aa bc b4 33 0b ba 99 27 8a ba 34 d8 ed bc
       -0.020821294 -0.00053101336 -0.0010540365 -0.029033758
000090 3f b3 db bc 89 b9 45 bc 12 30 f2 3c 69 e0 0a bc
       -0.02681887 -0.012068161 0.029563937 -0.008476355
0000a0 30 67 ac 3b 24 77 f8 3b 48 40 0e 3c 5e f7 16 bc
       0.0052613243 0.007582562 0.008682318 -0.00921425
0000b0 5c 26 eb bc d9 d7 a9 bd 49 89 ae 3b 3a ab 9c 3c
       -0.028704815 -0.08293123 0.0053264243 0.019124616
0000c0 e3 33 0f bd c9 bb 07 bb e4 62 9f 3c b6 69 c4 39
       -0.034961592 -0.0020711294 0.019456334 0.00037462794
0000d0 56 b2 c7 3c 31 96 e9 bc a8 3c 14 3d cf 96 27 bd
       0.02437703 -0.028514 0.03619066 -0.040915307
0000e0 db 43 4a bd b3 bc b9 bb 2a 5d e8 bc ce 71 cf bc
       -0.04938112 -0.0056682467 -0.028364737 -0.025322821
0000f0 73 be 9d bc 79 78 ed bc da 98 61 ba 95 b5 5c bc
       -0.019255852 -0.02898811 -0.00086058455 -0.013471027
000100 4e 1d a1 bd 56 f9 c2 bc 96 61 bd bb eb 7c 79 bd
       -0.078669176 -0.023800533 -0.0057794554 -0.060910147
000110 1b 6a 92 bc a8 c0 51 3b 60 07 11 bd 06 18 cd 39
       -0.01787286 0.0032005701 -0.035407424 0.00039118546
000120 58 6c 2d bd aa 78 05 3b 22 6a 4a 3c cf 0f 10 bc
       -0.042339653 0.002036611 0.012354406 -0.008792832
000130 84 d7 17 3c b4 e6 6c 3c 29 62 45 bc 7c e2 02 bd
       0.0092676915 0.014459301 -0.012047329 -0.031954274
000140 83 46 8a bc ad 0c ee bc ea fc 10 bd 43 2f ba bc
       -0.016879326 -0.029058779 -0.035397448 -0.022727614
000150 8e fe 33 bc 64 4c 7a bc 6d 4a 8e bc 67 26 c1 bb
       -0.010985984 -0.015277002 -0.017369473 -0.0058944705
000160 ac 45 26 bc d8 71 ae bc ca 0c 20 bd ba 40 16 bd
       -0.010148447 -0.02129452 -0.039074697 -0.03668282
000170 47 4a 90 bc ad 74 e9 3b bc 89 58 bc eb d1 80 3b
       -0.017613543 0.0071245045 -0.013216432 0.003931274
000180 97 4c 71 bc 7d 7f c2 bb 9b 20 65 3c 33 e5 21 3d
       -0.014727733 -0.005935608 0.0139848245 0.039525222
000190 8e ba b4 bc 43 c7 b5 bc 49 14 91 bc 85 50 8b bc
       -0.022061612 -0.022189742 -0.017709868 -0.017006168
0001a0 5d b9 c9 bc 04 1e a0 3b 85 fd 7c bd e3 3d b2 3a
       -0.02462452 0.0048863906 -0.061765213 0.0013598766
0001b0 0f 5a 80 bd 40 46 b9 bc e2 c3 0a bd b7 d9 98 bc
       -0.06267177 -0.022616506 -0.033878215 -0.018658502
0001c0 f1 13 19 bd a8 c7 cd 3c f3 95 69 3c ee 83 bb bb
       -0.037372533 0.025119618 0.014256942 -0.0057225144
0001d0 05 24 fb bb a4 fd 10 3c 32 3e 80 bc 7f 9a 37 3b
       -0.007664206 0.008849535 -0.015654657 0.002801567
0001e0 79 ef ae bc 34 96 65 bd e8 24 1c 3b 46 1c 4a 3c
       -0.021354424 -0.056051448 0.0023825709 0.0123358425
0001f0 0c c6 11 bd 81 bc 48 bb 73 0e 43 bc 44 b3 8c bc
       -0.035589263 -0.0030629935 -0.0119053 -0.017175324

Linear2.weight f4 [128, 128]
000000 e0 25 9e bd 6a 93 1d be 6a a4 54 3e 6e 59 29 be
       -0.07722068 -0.15388265 0.20765844 -0.16538021
000010 c3 59 ae bc fd 20 33 3e cb 04 8d bd 21 be 8d bd
       -0.021283036 0.17493053 -0.0688568 -0.0692103
000020 7b c5 4f 3e 3b 8f 18 3d 9c 46 02 be 99 9b 13 3d
       0.20290177 0.03724597 -0.12722248 0.03603706
000030 f7 73 bf be d7 4f 85 bd 70 d9 cf 3d 11 37 92 be
       -0.37393162 -0.06509369 0.10148895 -0.28557637
000040 ca 10 55 3e 2d 51 1b be 4c b3 76 bd 0e 59 5e be
       0.20807186 -0.15167685 -0.060229585 -0.21713659
000050 18 53 d9 bd 28 bd 92 3e 98 91 76 3e 87 02 21 3e
       -0.10611552 0.2865994 0.24078977 0.1572362
000060 b9 da 62 3e 6b 9b 30 3e 9a 68 8a 3e 4f 83 40 3d
       0.22153749 0.17246787 0.2703293 0.047000226
000070 ff 82 89 3e 5b b0 8d 3d 65 b9 7b 3d 9d df 95 be
       0.26857755 0.06918403 0.061456103 -0.29272166
000080 a5 0a a2 bc 67 9e 83 be ae f1 90 3d 97 6c 01 bd
       -0.019780466 -0.2570679 0.07077347 -0.0315977
000090 61 c6 0b be 2e fd 5c 3e b4 b8 82 be 28 c9 0c be
       -0.13649894 0.21580955 -0.25531542 -0.1374861
0000a0 cb 38 89 3d 22 24 1a be 6b 39 b0 3c 39 59 92 3e
       0.067002855 -0.15052846 0.021511754 0.28583696
0000b0 66 8b 8a bd 10 2f 00 3e 2d d6 32 be e0 26 ba 3c
       -0.067648694 0.12517953 -0.17464514 0.022723615
0000c0 a6 b7 0b bd 42 5f ce bd ab 5f 93 bd a3 be 08 3e
       -0.034110688 -0.10076763 -0.071959816 0.13353972
0000d0 22 43 42 be 3d 6f 81 bc 0b 10 fa bd d2 be 97 bb
       -0.18970922 -0.015800113 -0.12210091 -0.004630902
0000e0 09 cb 34 3e 62 a2 a6 3d e8 c6 e6 3d ce 9c 5b be
       0.17655577 0.08136441 0.11268407 -0.21446535
0000f0 3a 52 3f bd 5f 7e c7 3d 95 18 2d be ce bb 68 3d
       -0.046709277 0.097409 -0.16903909 0.05681973
000100 02 9b 0d be 7e a2 20 3e 22 b9 2d 3c 69 08 07 be
       -0.13828662 0.15686986 0.010603221 -0.13186802
000110 81 64 89 3d 16 fc 04 3e 34 0e 22 3e 69 51 c5 3d
       0.06708623 0.12986788 0.1582573 0.096346684
000120 39 92 8b 3e 2e cd da bd f8 5d 0f 3e df b0 a3 3d
       0.27259997 -0.10683666 0.1400069 0.0799272
000130 3d e9 e7 bb 14 68 76 bd 24 1e 04 bd 9b 62 64 3d
       -0.0070773647 -0.06015785 -0.032255307 0.0557581
000140 da 81 9b be 91 76 77 be d9 80 3c bd a6 75 3b 3e
       -0.30372506 -0.24166323 -0.046021316 0.18306598
000150 84 11 96 bd 7a 53 1f 3e 81 61 bc 3d e2 dc 8b bd
       -0.073275596 0.15559188 0.09198285 -0.068292394
000160 59 b3 2c be 9e 02 ee 3d 94 40 b9 3c 6c ba af be
       -0.1686529 0.11621593 0.022613801 -0.34321916
000170 98 f5 b1 bd 6a 7e 82 3d 8e 40 6f be f9 84 50 be
       -0.086894214 0.06371768 -0.2336447 -0.20363225
000180 a4 c7 9e 3d d6 36 0a be 54 e1 04 be 0d bf 0c be
       0.07752922 -0.13497481 -0.12976581 -0.13744755
000190 1c b6 0e 3d 23 f0 2d be 50 b0 02 3e 58 ec 5e bd
       0.03484164 -0.16986136 0.1276257 -0.054424614
0001a0 ee 89 a5 be bd e3 08 be bb fc a2 3e 74 96 a6 3b
       -0.32331795 -0.13368125 0.31833443 0.0050838534
0001b0 a0 ab 3b be a8 af 70 bd f4 07 8d 3d c7 a7 56 be
       -0.18327188 -0.05876127 0.068862826 -0.2096244
0001c0 18 a0 de 3b 7e f1 ef bd b5 5a 8a bb 6c 30 04 be
       0.006793987 -0.11715983 -0.004222239 -0.12909096
0001d0 be 35 73 3c 77 c4 85 3e c5 ac 77 be d0 65 31 3d
       0.014844356 0.26126453 -0.24187 0.043309987
0001e0 af e5 17 3e 7b a7 63 3e fa f0 a3 bb 4d cc 2a 3e
       0.14833711 0.22231857 -0.005003092 0.16679497
0001f0 aa 19 a7 be 02 ac bb bc 3b cd 52 3e a3 46 95 be
       -0.32636768 -0.022909168 0.20586102 -0.29155454
000200 d8 16 6a bd 61 a1 07 3e 3a 77 a1 be 9a 96 c0 bb
       -0.05715069 0.13245155 -0.31536275 -0.005877328
000210 86 59 59 be 31 e7 86 3d f0 5f f1 bc c4 ff 72 3d
       -0.21225557 0.06587065 -0.029464692 0.05932595
000220 02 73 e1 3d ac 2a 05 be e3 71 0e be e6 fb ab 3d
       0.11008264 -0.1300456 -0.13910632 0.08397655
000230 b1 d3 8d 3d 52 19 56 3e 0a fa 42 be ae c7 c9 bd
       0.069251426 0.20908096 -0.19040695 -0.09852539
000240 fd ce 38 be 29 7d 10 be b1 f5 61 3d bf b7 ec bd
       -0.1804771 -0.14110245 0.05516595 -0.11558484
000250 cd 1a 84 3d 0e 60 47 be 3b 7d 60 be 3c 7f f4 bd
       0.06450424 -0.19470236 -0.21922772 -0.119383305
000260 01 4d db 3d 73 5f 54 be 69 79 1c 3b 04 e5 d2 3c
       0.10708047 -0.20739536 0.0023876077 0.025743969
000270 58 12 af bd 71 a5 4f be 38 03 92 39 e8 44 3b 3c
       -0.08548421 -0.20277955 0.00027849688 0.011430003
000280 2b 70 23 3e af ef f4 bd ca cb 8b be c5 f8 c3 bd
       0.15960757 -0.119597785 -0.27303916 -0.095689334
000290 a6 3c 8a bd ce c6 fe 3d 7e d8 c2 bb 85 43 07 3e
       -0.06749849 0.12440263 -0.005946218 0.1320935
0002a0 ce d3 90 bd 13 44 0e be fa 62 14 be e1 fb af 3d
       -0.070716485 -0.13893156 -0.14490882 0.08592964
0002b0 39 f6 8a be 9f dd 74 be 6b d7 8f bd 0a 24 89 3e
       -0.27140978 -0.23912667 -0.070235096 0.26785308
0002c0 1e eb bd bd 69 58 83 3d 12 d7 1b be e3 b9 d4 bd
       -0.09273361 0.06413347 -0.15218762 -0.103870176
0002d0 f0 c3 e1 3d 76 69 c0 3c 42 76 68 bc 4b 91 16 be
       0.110237 0.023487788 -0.014188351 -0.14703862
0002e0 16 62 28 bd ee 25 6a bc 40 a3 1f bb 01 e0 10 be
       -0.041109167 -0.01429127 -0.002435878 -0.1414795
0002f0 bc d6 6c be 45 a8 dc bd 79 a2 9f bd b4 e3 d9 bd
       -0.2312879 -0.10774282 -0.07794661 -0.10639134
000300 9d bb b3 3d bd c0 1e be df ec c9 3b 12 ab 7a be
       0.08776019 -0.15503211 0.0061622704 -0.2447932
000310 4f 30 56 bd 7a 12 0e be 26 86 89 be b2 15 e1 3d
       -0.052292164 -0.13874236 -0.2686016 0.10990466
000320 a0 20 43 be fa 67 cb bd c3 eb 69 bd 5a 80 bf be
       -0.19055414 -0.09931941 -0.057109606 -0.37402612
000330 60 1d 34 3c 05 84 f1 3d e0 3a 09 be 6b dc 90 bd
       0.010993332 0.11792759 -0.13401365 -0.070732914
000340 d4 0d d2 3c eb 80 62 be 2d 9a 4b be 04 d1 77 bd
       0.02564136 -0.22119491 -0.19883032 -0.060502067
000350 83 5d f4 bd e9 77 d1 3d c0 e1 6f 3d a3 2f 0e be
       -0.119318984 0.10227949 0.0585649 -0.1388536
000360 88 d6 11 be b1 bf 85 be bb 49 b1 bd 4e 45 93 bd
       -0.14241993 -0.2612281 -0.08656641 -0.07190953
000370 da 0a d9 3d 99 e3 1d be 06 64 41 3e 55 c7 1c 3e
       0.10597773 -0.15418853 0.18885812 0.15310414
000380 e6 8a 83 be 52 db 93 bd b4 61 9d be 48 09 d3 3d
       -0.2569191 -0.072195664 -0.30738604 0.10304505
000390 5f 87 2c be 8f 57 6f be 59 ee 05 be 8d 3a 30 be
       -0.16848515 -0.23373245 -0.13079204 -0.17209835
0003a0 34 35 79 3d 2d 5b b2 3d ce ea 40 bc c6 eb 4b bc
       0.060841754 0.08708797 -0.011774732 -0.0124463495
0003b0 1d ba 4f 3d fc b0 02 3d 2c 4a 82 3c 43 4d 5a be
       0.0507146 0.031907067 0.015904509 -0.21318536
0003c0 8e ad 44 bd c8 63 20 3e a2 4e f2 bd d6 17 3b 3d
       -0.048017077 0.15663064 -0.11831404 0.04567703
0003d0 74 79 db 3d 8b c9 b0 3d cf f3 7c bd e7 12 1b be
       0.10716525 0.08632191 -0.06175595 -0.1514393
0003e0 d2 27 f9 bc 67 a2 d0 bc 97 a5 6a 3c 5c 24 51 3d
       -0.030414496 -0.025468064 0.014321706 0.051060066
0003f0 c6 37 de bc c3 aa ae 3d 4d d2 3e bd bd a8 0c bd
       -0.027126204 0.08528664 -0.046587277 -0.03434061

Linear2.bias f4 [128]
000000 72 c0 8a 3d e3 5b ff 3c eb 22 17 be bd 09 6a bc
       0.06774987 0.031171745 -0.14759414 -0.014284548
000010 c8 97 4c bd e6 27 a8 bd 37 c1 86 bd 24 8c b4 3b
       -0.049949437 -0.08210735 -0.065798216 0.00550987
000020 bb f2 60 bc 28 58 b9 bd d8 92 ad bb 90 f8 bf 3d
       -0.013729746 -0.090500176 -0.005297046 0.093735814
000030 76 35 e0 3c 8b 1a 19 3c e0 ed 5f bd c8 7b 66 bd
       0.027369242 0.009344707 -0.054670215 -0.05627039
000040 c1 69 c7 bd 68 92 5c 3d c9 e5 7b 3d ea e2 93 bd
       -0.09736968 0.05385056 0.061498437 -0.07221015
000050 17 ee b4 bc 99 0c d5 3c 00 0b 32 b7 79 b4 9c bc
       -0.022086186 0.026006984 -1.0612188e-05 -0.019129025
000060 63 31 ea bd 06 73 2e 3b fd b7 34 bd 25 17 80 bd
       -0.11435201 0.0026618852 -0.044120777 -0.062544145
000070 bc 47 15 3c 23 98 a2 bd 0d 86 75 bd fa af 0d 3d
       0.009111341 -0.07939174 -0.059942294 0.034591652
000080 0e 6f 8a bd c1 3b 2a bd de 1e a7 bd 94 c6 15 bc
       -0.06759463 -0.041560892 -0.08160184 -0.009141583
000090 e2 31 de bb cb 56 9c 3d 4a 21 95 bc 08 60 ef bd
       -0.006780849 0.07633742 -0.01820435 -0.116882384
0000a0 88 7c d9 bb fc a6 6c bd c1 c8 8d 3d 14 e3 14 bd
       -0.0066371597 -0.057776436 0.069230564 -0.03634937
0000b0 dc f5 f0 3c 54 1d db bd 66 16 b4 3c a8 c8 87 bc
       0.02941411 -0.10698953 0.021983337 -0.016575173
0000c0 a8 4f 19 3d 01 4d a5 bc 97 41 f6 bc eb 48 e7 bd
       0.03742948 -0.02017832 -0.030060573 -0.11293205
0000d0 64 6a 35 3d 03 35 87 bc c9 12 5e bd d9 5e 24 bd
       0.044290915 -0.01650477 -0.054217134 -0.040129516
0000e0 03 3d 9d bd 03 5c ba 3c af e4 c4 3d 64 e6 8e 3d
       -0.07677653 0.022748953 0.096139304 0.06977537
0000f0 40 e4 12 be 61 cb 09 bd 1d 4e 10 3c b8 c8 91 3d
       -0.14344883 -0.033641223 0.008807686 0.07118362
000100 f5 12 36 3d 47 00 b9 bd bb db e5 bc c5 50 98 bd
       0.044451673 -0.09033256 -0.028058877 -0.074372806
000110 d4 c7 a9 bd 9a 88 5b bc b9 f1 fa bb 30 7d 0f be
       -0.08290067 -0.013399268 -0.00765821 -0.14012599
000120 24 40 c4 3d f3 11 ea bb 44 64 27 bd 4f 06 4c bd
       0.09582546 -0.007143253 -0.040867105 -0.049810704
000130 28 dd 9e 3d ea c5 76 bd 0c ea 75 3d d9 0d 33 bd
       0.07757026 -0.06024734 0.060037658 -0.043714378
000140 c6 de 88 bd 92 e8 70 bc 16 1f 1c bd 5a 3e eb 3b
       -0.06683116 -0.014703887 -0.038115583 0.0071790637
000150 b0 fd ba bc b5 b8 8e bd c8 d6 c4 3b b0 3f aa 3c
       -0.022826046 -0.06968824 0.006007049 0.020782322
000160 7b 25 9e bd 42 1d b8 bc 21 64 80 3c df ce 41 ba
       -0.077219926 -0.022474889 0.015672745 -0.0007393192
000170 41 e0 6c 3d 5f 10 2e 3b 1e 8a 2e 3d 06 d2 1a bd
       0.057831053 0.002656005 0.042612188 -0.03779795
000180 14 1f 75 3c 72 b8 81 bd d4 0a cc 3c 06 f2 a1 bd
       0.014961023 -0.06334008 0.024907507 -0.079074904
000190 e9 3f 3f bc 5f 13 d9 bd f4 d2 c8 3c c4 cf 57 bd
       -0.011672952 -0.10599398 0.024514653 -0.052688375
0001a0 25 59 4b 3d 15 3e 2b bc cb cb a7 bc a2 a6 18 3c
       0.04964556 -0.010451813 -0.020482918 0.009317072
0001b0 17 76 68 bc 66 ff 46 3c 13 16 b6 3c 9e 80 63 3d
       -0.014188311 0.012145853 0.022227323 0.05554258
0001c0 b9 df 38 bc 82 d1 24 3d f5 1c c5 bd e1 5a 9e 3c
       -0.011283808 0.040238865 -0.09624664 0.019330444
0001d0 e5 b5 0f 3d bd 68 e5 bd dc 0f 52 3d 73 84 ce bd
       0.035085578 -0.11201618 0.051284656 -0.100838564
0001e0 8f 76 f2 3d c8 1c a5 bd 6f 59 f1 3d bc a3 3d 3d
       0.118390195 -0.0806213 0.11784636 0.046298727
0001f0 c9 eb 52 bc 8c 56 a3 bc 6b a8 79 bd 4d 0d 8c bc
       -0.012873598 -0.01993873 -0.06095163 -0.017096186

Linear3.weight f4 [128, 128]
000000 9f c5 f2 be 1f eb 08 3e a5 fd 7e 3d 4a 7c d7 bd
       -0.47416398 0.13370942 0.062253613 -0.10521753
000010 b4 cb 8e be e0 c8 12 be 37 04 c0 bd 41 b4 0f 3e
       -0.27889788 -0.1433444 -0.09375804 0.14033605
000020 ea 4d cd 3c e8 35 e4 bd d3 77 84 3d 3e 0f bf 3d
       0.025061566 -0.11143094 0.06468167 0.09329079
000030 97 33 5f 3e 4f 19 14 3d 2d 59 4c be ec c4 1e 3e
       0.21797024 0.03615695 -0.19955893 0.15504807
000040 ab 33 0b be 7e 3e 30 3d e5 db 7e be 9a 92 8c 3e
       -0.13593929 0.043028347 -0.2488857 0.27455598
000050 fc ee 7e be ad cd 90 3e aa a5 3d 3c 0c 05 1d bf
       -0.24895853 0.28281918 0.011575142 -0.61335826
000060 66 02 96 3d 37 ab c0 3c 18 e8 10 3c 2a 87 bb bd
       0.07324676 0.023519142 0.008844398 -0.0915664
000070 2e ba c3 bd 2f a4 2c 3d d5 7f 58 be 51 ff 53 3e
       -0.09556995 0.042148765 -0.21142514 0.20702864
000080 47 dc 77 3e 37 74 48 3d d6 ef 4e bd a4 88 a2 be
       0.24205123 0.048938956 -0.050521694 -0.31744874
000090 17 8b 3e 3e 1b f1 37 3e 66 27 db bd 2c 6b 36 3d
       0.18607746 0.17963068 -0.10700874 0.0445358
0000a0 bd 1e 71 3e 53 79 7a 3d d7 38 a1 be 67 ae 76 3d
       0.23546882 0.06115086 -0.31488678 0.060224917
0000b0 dc 04 22 3c 23 ed 47 3d ce e6 d1 3d c0 1c 2f be
       0.009888854 0.048810136 0.102491006 -0.17100811
0000c0 12 63 2f 3d b3 91 a9 be c2 9d 81 be 92 1c 10 3d
       0.04281909 -0.33118972 -0.25315672 0.035183497
0000d0 17 9a a2 3c 07 a0 98 3d ea 98 8a 3e 9d 32 1f 3d
       0.019848866 0.07452398 0.2706979 0.038866628
0000e0 58 85 04 3d 7e 8e 85 be fd ce 81 be 21 34 86 3e
       0.03235373 -0.26085275 -0.25353232 0.26211646
0000f0 19 6d 20 be 75 1b 3a 3d f1 0e 14 be b1 81 33 3d
       -0.15666617 0.04543634 -0.14458825 0.043824855
000100 c5 c1 6d 3d 7f 5c b0 be 86 cf a9 be 93 4f b2 be
       0.05804612 -0.3444557 -0.3316614 -0.34826335
000110 04 7a 32 be 76 ba cb 3d 31 bc ca 3d c8 5a 51 bb
       -0.17429358 0.09947674 0.09899176 -0.003194498
000120 63 3f 2d 3d e6 36 8a 3d 65 c6 05 be 7b 1c cc 3d
       0.04229678 0.06748752 -0.13063963 0.0996637
000130 4e 85 b6 3d ad 3b 22 be 18 f4 3f 3d a9 21 8c 3d
       0.089121446 -0.15843077 0.046863645 0.06842358
000140 a5 7c 84 bc 78 07 6b bd f3 db ab be f0 02 8c be
       -0.016172716 -0.05738017 -0.33566245 -0.2734599
000150 1d fc 85 be 21 5b c5 bd f7 0e ed 3d cf 05 c1 be
       -0.2616891 -0.09636522 0.1157512 -0.37699744
000160 16 ac 3c 3e 9f f6 cd be 28 73 b9 3d 44 5b 46 be
       0.1842502 -0.4022722 0.090551674 -0.19370753
000170 75 e3 a2 3d ad 54 71 be 94 fa 2f 3e 7c 9f 0e 3e
       0.0795354 -0.23567457 0.17185432 0.13928026
000180 a4 d3 fe 3d 76 77 32 be a6 72 40 bd df 72 22 3e
       0.12442711 -0.17428383 -0.046984337 0.15864132
000190 73 c7 5b bd 27 c0 9e bd 0d 69 54 3d f9 db 1f be
       -0.053657006 -0.07751494 0.051857997 -0.15611257
0001a0 37 3f d8 3b fc d0 fa 3d 2b 5b 7a 3c d7 49 cb 3d
       0.0065993327 0.12246892 0.015280525 0.09926193
0001b0 29 ae 4e be 57 a8 46 be 4b f9 83 3e 1e be 55 bd
       -0.20183624 -0.19400154 0.25776133 -0.052183263
0001c0 24 78 30 bd 05 cb 3b be 9d ea 2f be ad 17 99 3c
       -0.043083325 -0.18339165 -0.17179342 0.018688047
0001d0 85 4e 15 bd 72 cf 29 be 21 c7 51 be 0a 98 8d bc
       -0.036451835 -0.1658304 -0.20486118 -0.017284412
0001e0 68 4f 6b 3e ab 3a dc be d7 3b 21 3e 97 13 9b 3d
       0.2297951 -0.4301351 0.15745483 0.07572096
0001f0 9c 41 63 bd 55 10 44 be 43 d6 10 3e 98 e8 b6 3d
       -0.05548249 -0.19146855 0.14144234 0.089310825
000200 64 5a 53 bc 64 d2 95 3d c4 02 8d be 43 c7 10 3e
       -0.012899969 0.073155195 -0.27541173 0.14138512
000210 dd e6 7f 3b 88 72 3b be 55 8b 01 3e e0 58 1b 3e
       0.0039047517 -0.18305409 0.12650807 0.15170622
000220 36 ba 5a 3e 76 cd 81 be 8c 42 0c bc 41 68 70 3c
       0.21360096 -0.25352067 -0.008560788 0.014673294
000230 2c d0 9e 3d 0b dc 13 3d 93 93 fd 3b 40 5d 3c 3e
       0.077545494 0.03609852 0.0077385395 0.18394947
000240 f9 e6 46 be 09 25 af bd 7d 6b 19 be 52 3b 76 3d
       -0.19424047 -0.08551986 -0.1498241 0.060115166
000250 45 ee 8b be 3c c2 57 3e a6 88 3e 3e ea b6 97 bd
       -0.27330223 0.21070188 0.18606815 -0.07407935
000260 f3 47 68 be 4c c0 5b 3c ba 25 54 3d 15 d1 a6 be
       -0.22683696 0.013412546 0.05179379 -0.32581392
000270 9a 83 0e 3e 9e d2 2e 3d ae e7 98 3d 51 28 a9 3e
       0.1391739 0.04268133 0.074660644 0.3303857
000280 29 32 6e 3e 16 6a 33 3d 8c b3 e0 be 52 81 eb bd
       0.23261322 0.043802343 -0.43886983 -0.11499275
000290 97 a5 81 3e a1 30 e3 3d 5c e5 2e 3e 82 7c c4 be
       0.25321648 0.110932596 0.17079681 -0.38376242
0002a0 2e e7 48 3e 32 da 3b 3e 44 dd f8 3a 48 f4 aa bc
       0.19619438 0.18344954 0.0018986841 -0.020868436
0002b0 e2 0e df 3d f1 3c cd 3d c4 91 73 bd 22 c1 10 3e
       0.108915105 0.10021389 -0.059465185 0.14136174
0002c0 38 e7 92 3d dd 8e 92 3d 76 ac 50 3d 49 db 1f be
       0.07173008 0.07156155 0.05094572 -0.15610994
0002d0 c2 e0 b4 bd 75 c8 58 3e 98 e7 a3 3e 1b 27 f7 be
       -0.08831932 0.21170218 0.3201263 -0.48272023
0002e0 98 d3 11 3e 11 0e ab 3d f2 fe 90 be 4a 36 b9 3d
       0.14240873 0.08352292 -0.28319508 0.09043558
0002f0 58 b9 20 3e f4 b5 b6 3e e4 ae d7 3d d2 a8 b7 bd
       0.15695703 0.35685694 0.105314046 -0.08967747
000300 f0 d6 16 be d7 2b 86 3c ea 19 79 bd 5e 93 67 3d
       -0.1473043 0.016378326 -0.06081573 0.056537025
000310 ba 53 72 3e 28 49 b0 3d d1 67 2c 3e c4 5f df bc
       0.23664752 0.086077034 0.16836478 -0.027267344
000320 db 78 8c 3d 1c a7 27 3e 61 d3 2c 3d 29 67 b8 3d
       0.06858989 0.16372341 0.042193774 0.09004051
000330 35 e4 9c 3b f5 d4 cc 3b a5 ce 43 3d 09 96 a8 3d
       0.0047879466 0.0062509724 0.047804493 0.08231742
000340 e3 e8 2c 3c cd 8e 4e 3e 70 af 05 be 77 18 81 be
       0.010553571 0.20171662 -0.13055205 -0.25213978
000350 a9 3a 37 3e 1a af 39 3d a6 64 8a bc 88 d0 74 3e
       0.17893471 0.045333005 -0.016893696 0.23907673
000360 77 a0 4f 3a 6c 12 05 be dd 87 3e 3d d9 fa 7c 3d
       0.00079203345 -0.12995309 0.046516288 0.061762664
000370 ac 63 07 3e 13 21 d4 3d 18 b6 5f 3e 55 94 ea bd
       0.13221616 0.10357871 0.21846807 -0.11454073
000380 2d 17 b8 3c 80 f0 a2 3e 13 1d 58 3c 29 6e 48 3e
       0.022471989 0.31824112 0.013190526 0.19573273
000390 c3 4b 34 bd 44 ac cc be 13 bf 4b 3e 08 8c ad bc
       -0.044017565 -0.39975178 0.19897108 -0.021184936
0003a0 35 53 98 bd 6b d9 2e be 65 00 98 3e 0f a6 93 3e
       -0.074377455 -0.17075126 0.296878 0.2883763
0003b0 37 35 1a be 5a 2b 50 be 0d 6b a5 bd 00 e1 2f 3e
       -0.15059362 -0.20329037 -0.08077059 0.17175674
0003c0 1e 2d c7 bd b0 30 c2 3d f7 4b 72 bd 09 14 9b 3d
       -0.09725402 0.09481943 -0.059154477 0.07572181
0003d0 17 1c fd 3d fc 3e 29 3d ff 89 d5 be e0 e5 94 3c
       0.12358873 0.041319832 -0.41706845 0.01817602
0003e0 b6 d9 84 bd b9 2c fe bd 62 9c 8d bd 0d 89 b7 bb
       -0.064868376 -0.12410874 -0.06914593 -0.0056010545
0003f0 a5 4c 01 3e 71 f4 c9 3c bb 1f 28 3e ae 8b 6b 3e
       0.12626894 0.024652692 0.16418354 0.23002502

Linear3.bias f4 [128]
000000 94 ca 83 3d aa 19 af 3d 3d 47 e7 3d f7 b6 b9 bc
       0.06435123 0.08549817 0.112928845 -0.022670252
000010 35 90 5a 3d 03 c0 64 3d 9c b8 27 3e 57 2b 98 3c
       0.053360183 0.05584718 0.16379017 0.018575354
000020 b3 f3 8e bd 11 be 04 3e fc 5a 59 3d 3a e2 0d bd
       -0.06980076 0.1296313 0.053065285 -0.034639575
000030 cd 4d 25 3e fd c5 e5 3d 58 6a f7 bd 94 24 7b 3d
       0.1614296 0.11219404 -0.1208083 0.06131418
000040 29 52 fb bd f0 ec 0a 3e 48 c5 20 3d 80 a9 da bd
       -0.1227153 0.13566947 0.039250642 -0.10676861
000050 6f 6e 9d bd 06 fc 83 3d 35 f1 42 bd 10 32 e3 3c
       -0.07687079 0.06444554 -0.047593314 0.027733833
000060 da 22 34 be d2 09 10 3e 08 bb 87 bd 8d 1b db bd
       -0.1759142 0.14066246 -0.0662747 -0.10698614
000070 89 70 0f 3d 09 b1 b8 bd ca 4e 8e bc 55 78 8e 3d
       0.03501943 -0.09018142 -0.017371554 0.06956545
000080 a0 57 93 3d b5 8c af bd 11 38 32 3d 09 bf 7c 3d
       0.071944475 -0.085717596 0.0435105 0.061705623
000090 a6 c3 ee bd 19 fb 7a 3d 86 14 6a be 8a f7 18 3c
       -0.11658411 0.06127462 -0.22859392 0.009336362
0000a0 97 b4 d0 bc 86 ef e4 3d 52 91 b6 3c 86 5c 92 3d
       -0.025476737 0.11178498 0.022286091 0.07146554
0000b0 66 2c 7c 3d b3 7f 08 3e f6 7a 55 3c 50 19 ed 3d
       0.06156578 0.13329963 0.013029804 0.115770936
0000c0 15 ed 9b bd 18 85 26 3c 37 e7 86 3d e2 d9 9c 3d
       -0.07613579 0.010163568 0.065870695 0.07658745
0000d0 07 9c 47 3d 3b 97 88 bd 07 bb 04 3e a0 ff 82 bd
       0.048732784 -0.0666947 0.1296197 -0.06396413
0000e0 61 93 ee bd 34 27 d2 3d b6 83 08 be d8 48 57 3d
       -0.11649204 0.10261384 -0.13331494 0.052559704
0000f0 d0 d3 17 3d 6e 0e 6b 3d 0c 36 a5 3d 9b 91 d5 3d
       0.037067235 0.057386808 0.08066949 0.10428163
000100 df 2f 2b 3d 4a 58 ab 3c 96 bb 8a 3b be 56 09 3d
       0.0417937 0.020916123 0.004233788 0.03352999
000110 4b 9c df 3d a9 9e de 3d f4 01 01 3d ae b0 9f ba
       0.109184824 0.10870106 0.031496003 -0.0012183392
000120 82 8b 77 bd 8a af 0a 3e 1d dc b4 b8 fd 7f a1 3c
       -0.06043578 0.13543525 -8.624068e-05 0.01971435
000130 c1 cc d7 3d a0 7d 00 3e 25 99 17 3d 96 f7 dc 3d
       0.105371006 0.12547922 0.037011284 0.10789411
000140 14 7e 21 3d 08 b3 73 3b 17 3b e1 3d bd 8e 49 bc
       0.039426878 0.0037185568 0.109975986 -0.012302098
000150 32 82 f7 bd d8 f2 bb 3d 68 ae cd bd 20 49 0e 3d
       -0.1208538 0.09177178 -0.10043031 0.034737706
000160 ae 49 86 3d 0f 79 82 3c db 41 4d bd 53 99 0c 3d
       0.06557022 0.015926866 -0.050111633 0.03432591
000170 f9 2a ba 3d 09 b5 d3 bd 43 a1 7a 3d 97 0a 97 3d
       0.09090228 -0.10337264 0.061188947 0.07375067
000180 e4 0d f2 3c 5f 6b f4 bb ed 5a 0d be f9 9e 18 3e
       0.02954764 -0.0074590887 -0.13804217 0.14904393
000190 13 e1 61 3d a3 d6 ea bd 9f 63 e6 3d 09 bb c0 3c
       0.055146288 -0.1146672 0.1124947 0.023526685
0001a0 5f 00 f6 3c ca 41 09 3e 12 4d 48 3d ac 9c e3 3d
       0.030029474 0.13404003 0.048901625 0.11113867
0001b0 f2 07 d3 3d 60 bf 10 bc 63 f8 77 3d f1 68 b2 3d
       0.1030425 -0.00883469 0.060539614 0.08711422
0001c0 1c 3b 8b bc 8c 8d ba bd 18 9f 98 bd 94 9a e6 ba
       -0.016995959 -0.09109029 -0.0745222 -0.0017593675
0001d0 33 fa 79 bc c4 ad ef 3c ea a6 0f bd a0 45 12 be
       -0.015257406 0.029257663 -0.03507129 -0.14284372
0001e0 5a db 9d 3d 3a a3 48 3c c5 fc 8e 3d 36 2b e7 3d
       0.077078536 0.0122459475 0.06981806 0.11287539
0001f0 e6 f2 ed 3d 47 9f ad 3c db 98 f9 bc 6e 90 8f 3d
       0.11618595 0.021194113 -0.030468395 0.0700997

Linear4.weight f4 [1, 128]
000000 b9 aa 47 3e 14 8e 1a 3e b0 25 8a 3e 8b 6d 1f 3f
       0.1949872 0.15093261 0.26981878 0.62276524
000010 14 94 66 bd 4c f5 01 bd 93 59 4e be 03 2f a4 bd
       -0.056293562 -0.031728074 -0.20151357 -0.08016779
000020 66 be fe be 59 3a 89 3e 20 29 40 be da 4e 93 3e
       -0.49754637 0.26802328 -0.18765688 0.28771096
000030 34 05 6d be a7 4c 4d 3e 3a d6 39 be 14 0e 8f 3e
       -0.23146516 0.20048772 -0.18148127 0.27940428
000040 2d 50 96 3c 22 ba ae 3e 69 6e bf 3d 3e 07 bc bd
       0.018348778 0.34126383 0.09347231 -0.09181069
000050 2f ac bb 3d 39 ef 31 3e 53 a2 9b 3e 8e ca 95 3e
       0.09163701 0.17376412 0.3039728 0.292561
000060 30 ec c1 3e d0 4a cc bd 06 89 11 3e f6 d4 ef bd
       0.3787551 -0.09975207 0.14212427 -0.11710541
000070 bd 99 22 3f a2 5a 97 3d 3c c7 79 3d ba 0f e4 3d
       0.63515836 0.07390334 0.06098102 0.11135812
000080 9b 1a 8f 3e b1 90 84 bd 90 ca ff bc bb 27 28 3e
       0.27949986 -0.0647291 -0.031224519 0.16421406
000090 06 91 ef 3e 41 85 a0 3e d7 02 e8 be dc 79 6e bd
       0.46790332 0.31351665 -0.45314667 -0.058221683
0000a0 00 cf 46 3d 3b e1 57 bd d4 dd 25 be 3f 23 24 bf
       0.048537254 -0.05270503 -0.16197902 -0.6411628
0000b0 7a a7 53 3e da 2b b2 3e 05 37 36 3e 44 9a ff bd
       0.20669356 0.3479908 0.17794426 -0.12480596
0000c0 fc c6 6c 3d a1 55 9a 3e d7 80 50 3e f9 37 97 3e
       0.057806954 0.30143455 0.20361648 0.2953489
0000d0 8b a1 3c bd ff 52 8e be 83 56 90 3e 64 e7 47 3e
       -0.046052497 -0.27797696 0.28191003 0.19521862
0000e0 9e 40 1c 3e b2 a9 41 be c5 d6 8a 3e 0d 1e 12 bd
       0.15259025 -0.1891239 0.2711698 -0.03567319
0000f0 8a 65 d2 3d 9c 15 90 3e 47 e8 22 be 0e ca 20 be
       0.10273273 0.28141487 -0.1590892 -0.15702078
000100 53 00 a1 3e e4 28 03 3e ba 95 00 be 8b 00 8f 3d
       0.3144556 0.12808567 -0.12557116 0.069825254
000110 a9 71 40 3e 4e 24 0c be d3 d3 3c be bb 30 de bd
       0.18793358 -0.13685724 -0.1844018 -0.10849138
000120 7f e8 02 bf 11 de 87 3e c3 08 f5 bd 1d 12 dd bd
       -0.5113601 0.2653661 -0.11964562 -0.107944705
000130 ba d5 37 3e 56 03 02 3e 35 53 eb be 7b 08 ad 3e
       0.17952624 0.12696585 -0.4596192 0.33795533
000140 d0 78 3a 3e df b8 27 3d a3 8d ac 3e fc 9d cb be
       0.18210149 0.04094779 0.3370181 -0.3976897
000150 ab d4 1b 3e 92 d0 bc 3e b0 51 93 3e 2d 22 2a be
       0.15217845 0.36877877 0.2877326 -0.166146
000160 c5 7b 94 3e 07 c7 d7 be b6 d6 3a 3c 31 ea 9f 3e
       0.2900068 -0.42144033 0.01140373 0.3123336
000170 00 67 53 be db 3b 41 be dc 9a 07 3e b9 f6 d2 3d
       -0.2064476 -0.1887049 0.13242668 0.10300965
000180 21 8b 2e 3e 9e a8 d7 bd e9 23 c6 be a9 89 5e 3e
       0.17045261 -0.10530208 -0.38699272 0.217322
000190 cc 59 53 3e e5 58 df be 73 7e 01 be c7 3d 60 be
       0.20639724 -0.4362251 -0.12645893 -0.21898566
0001a0 5e 9e d2 bd ec ff 22 3e 84 98 e3 be 2d 49 b9 3d
       -0.102841124 0.15917939 -0.44452298 0.0904716
0001b0 1c 2f 22 3e 0f 1e 06 3f 7e 55 6b 3e aa 34 03 3e
       0.15838283 0.52389616 0.22981831 0.12813058
0001c0 11 d4 ac bd 92 26 29 bc 54 b1 2f be 9a ce 81 bd
       -0.08438886 -0.010324137 -0.17157489 -0.06338234
0001d0 31 d5 83 3e e7 e5 ea be af bb 24 3d 4d b3 64 bd
       0.2574859 -0.45878527 0.04021805 -0.055835057
0001e0 cc 0a ff 3d 94 ab 84 3e e5 5e 4d 3e 29 75 a7 3e
       0.12453231 0.25912154 0.2005573 0.32706574
0001f0 90 08 93 3e 19 ec 7b 3e 9d dc e3 be d7 b7 b9 3d
       0.2871747 0.24601783 -0.44504252 0.09068268
