Neural_Salary_Model.pth (torch, 990480 bytes, 7 tensors)

Linear1.weight f4 [128, 1668]
0	0x3d2483fd	0.040164936
1	0xbda25b98	-0.07927626
2	0x3d010dd7	0.03150734
3	0x3d90ef2f	0.07076871
4	0x3b2154d3	0.002461721
5	0x3e0c586f	0.1370561
6	0x3df91705	0.12162594
7	0x3ceea393	0.029130733
8	0x3ca07687	0.019587768
9	0xbd293661	-0.041311625
10	0xbd94fe45	-0.072750606
11	0x3e362efa	0.17791358
12	0x3caaf3c0	0.020868182
13	0x3e3bf890	0.18356538
14	0x3d165abc	0.036707625
15	0xbc3e0f2a	-0.011600295
16	0x3c139c91	0.009009496
17	0x3d86ac2c	0.06575808
18	0x3d92df77	0.07171529
19	0xbd66bdab	-0.056333225
20	0x3e1b7857	0.15182625
21	0xbdbcc691	-0.09217561
22	0x3d63e5a7	0.055638935
23	0x3d000942	0.03125883
24	0x3e138480	0.14406013
25	0x3e0f128c	0.13971919
26	0xbd6d0f87	-0.057876136
27	0xbc914ecf	-0.017737774
28	0x3c9aace4	0.018881269
29	0x3c800ec0	0.015632033
30	0xbde3feb4	-0.11132565
31	0xbc2b3256	-0.010449013
32	0xbc6820b0	-0.01416795
33	0x39470b5a	0.00018982348
34	0xbced28f1	-0.028950186
35	0xbc052eac	-0.008128803
36	0xbcfaa365	-0.03059549
37	0x3c2974d2	0.010342794
38	0x3e40d9fc	0.18833154
39	0x3d253409	0.040332828
40	0xbdab7118	-0.0837118
41	0x3d739452	0.05946762
42	0x3a8cf1bf	0.0010753198
43	0xba8e7fe7	-0.0010871858
44	0xbd27654c	-0.04086809
45	0x3d07c344	0.033145204
46	0x3c552ce6	0.013011193
47	0x3d00ee79	0.031477425
48	0xbddcc8a9	-0.107804604
49	0x3c4df98b	0.012571703
50	0xbd2efd1c	-0.042721853
51	0xbab02ccd	-0.0013441086
52	0x3dbc8cac	0.092065185
53	0xbd16c2ef	-0.036806997
54	0xbd0dd79f	-0.03462946
55	0xbda2fa6d	-0.07957921
56	0x3e3c9a11	0.18418147
57	0xbc084eba	-0.008319551
58	0x3cab34de	0.020899232
59	0xbcff36cc	-0.031154059
60	0x3dce906f	0.10086142
61	0x3d9dea8e	0.077107534
62	0x3be0c652	0.006859579
63	0x3dec6781	0.11543179
64	0xbc06d0ca	-0.00822849
65	0x3ccabe50	0.024748951
66	0xbd1f1cf5	-0.038845975
67	0x3de366b3	0.11103573
68	0xbc37bfb8	-0.011215143
69	0x3bc13d07	0.0058971676
70	0xbcaf0d66	-0.021368694
71	0x3d3abd74	0.045590833
72	0xbd1eaea7	-0.03874078
73	0x3d0c903d	0.034317244
74	0x3bece402	0.007229329
75	0x3db7dbcc	0.0897747
76	0xbc96105a	-0.018318344
77	0x3d66c534	0.05634041
78	0x3d3b8e36	0.04578992
79	0xbd922815	-0.07136551
80	0xbc816025	-0.015792916
81	0xbd502f63	-0.05082644
82	0xba9bff6a	-0.0011901681
83	0xbd31c15b	-0.04339729
84	0xbd5d7541	-0.0540669
85	0xbd94e29c	-0.07269785
86	0x3c387ced	0.011260253
87	0xbcbe1496	-0.023203176
88	0xbd07cb5b	-0.03315292
89	0x3dc4cd6d	0.09609494
90	0x3e27dd10	0.16392922
91	0x3da9a8fd	0.08284185
92	0x3dd4b120	0.103853464
93	0xbc46c6dd	-0.012132374
94	0xbdfac23f	-0.12244081
95	0xbd814e94	-0.06313816
96	0xbd2f65c1	-0.04282165
97	0xbc94cd83	-0.018164402
98	0xbcd54af6	-0.02603672
99	0xbbf23ea5	-0.0073927217
100	0xbc811b4b	-0.015760085
101	0x3e1f910d	0.15582676
102	0xbd066bbe	-0.032817595
103	0xbdc2cd6a	-0.09511836
104	0xbbc3a590	-0.0059706643
105	0xbd020326	-0.031741284
106	0xbc5331bd	-0.0128902765
107	0xbd0295f1	-0.031881277
108	0x3d446525	0.04794802
109	0xbd52ec81	-0.05149508
110	0xbd568341	-0.052371267
111	0xbc0f7cd9	-0.008757793
112	0xbc2b1524	-0.010442052
113	0x3d68145e	0.05666005
114	0x3c5f0aee	0.013613446
115	0x3d6815e2	0.056661494
116	0xbe8482ce	-0.25881046
117	0xbd4b6604	-0.049657837
118	0x3d90e6e9	0.070752926
119	0x3d64ff1c	0.055907354
120	0xbdc59794	-0.09648052
121	0xbd85a3dc	-0.06525394
122	0x3d9f4208	0.07776266
123	0xbb4b7220	-0.0031043366
124	0x3da97b81	0.082755096
125	0x3bb07137	0.00538459
126	0x3e08de14	0.13365966
127	0x3d84136d	0.06449018
128	0x3e3285b8	0.17433822
129	0xbceacc69	-0.028661923
130	0x3cdbb642	0.026820306
131	0xbd004279	-0.031313393
132	0x3c9d5fe5	0.019210765
133	0x3d2cc429	0.04217926
134	0x3de46f14	0.11153999
135	0xbd268765	-0.040656466
136	0x3c903642	0.017603997
137	0x3e1fa629	0.15590729
138	0x3a8cca3f	0.0010741426
139	0x3d36fdeb	0.04467575
140	0xbd1be9c0	-0.03806472
141	0xbc28dfb0	-0.0103072375
142	0x3ccf4c26	0.025304865
143	0x3d560104	0.052247062
144	0xbd41fbc0	-0.047359228
145	0x3d3bfba6	0.045894288
146	0x3e3ebc4a	0.18626514
147	0xbc847661	-0.016169729
148	0x3d998ba2	0.07497336
149	0x3b96086f	0.004578642
150	0x3dd3c062	0.103394285
151	0x3d0cd716	0.03438481
152	0x3dbb33f7	0.09140771
153	0xbd7a1fc3	-0.061065447
154	0xbdd1e857	-0.102493934
155	0x3cc7dd6a	0.02439757
156	0xbd101e1f	-0.035184976
157	0xbc913a06	-0.017727863
158	0x3cf0015f	0.029297529
159	0x3cba0bdb	0.022710731
160	0xb91a7269	-0.00014729206
161	0xbe140371	-0.14454438
162	0x3c77b0b9	0.015117818
163	0xbc2d4523	-0.0105755655
164	0xbe62efcc	-0.22161788
165	0xbd4b9533	-0.049702834
166	0xbd7cab65	-0.061686892
167	0x3db17447	0.08664756
168	0x3c23f19c	0.010006335
169	0x3d1ae3c3	0.037814867
170	0xbe1300d9	-0.14355792
171	0xbd18aae8	-0.037272364
172	0x3bd3cf03	0.0064638867
173	0xbd8e5b4b	-0.069510065
174	0xbd4dcebf	-0.050245997
175	0x3b32efab	0.0027303498
176	0xbd3f2651	-0.0466674
177	0xbd4d643c	-0.05014442
178	0xbcf843ba	-0.030305732
179	0xbcb8a02f	-0.022537319
180	0xbd24e008	-0.040252715
181	0xb9dfffa9	-0.00042724356
182	0xbd50d3f9	-0.050983403
183	0x3c189f9f	0.0093154
184	0xbd9083b8	-0.07056373
185	0xbd2bfc51	-0.041988675
186	0xbd1ad8a4	-0.03780426
187	0x3d3cd629	0.046102677
188	0x3d86fd13	0.06591239
189	0x3d57dd32	0.052701183
190	0x3d50ffe2	0.05102528
191	0x3e113a77	0.14182459
192	0x3db49de7	0.0881918
193	0x3e298400	0.1655426
194	0x3db37d6a	0.08764155
195	0xbbad038b	-0.0052799634
196	0xbd4e0af8	-0.05030343
197	0x3e5a370a	0.21310058
198	0xbd9878e6	-0.074449345
199	0xbdda75d7	-0.106670074
200	0xbd5ee498	-0.054417223
201	0x3d14ec4b	0.03635816
202	0x3d9a165f	0.07523798
203	0xbd14ea31	-0.036356155
204	0x3d7fa6f1	0.062415067
205	0x3d37b174	0.044846967
206	0x3caa2a2e	0.020772066
207	0x3ccda36a	0.025102336
208	0xbcaca6f0	-0.021075696
209	0xbcd63a97	-0.026150985
210	0x3c832a22	0.016011301
211	0xbc54849a	-0.012971068
212	0x3c8ff203	0.017571455
213	0xbd82ccfb	-0.06386753
214	0x3d0adc56	0.033901535
215	0xbe263b72	-0.16233614
216	0x3e4c0c07	0.19926463
217	0x3e181cc3	0.14854722
218	0xbd5e185e	-0.054222457
219	0x3de62e8b	0.11239346
220	0xbc7ba2e6	-0.015358662
221	0xbcce9a5f	-0.025220094
222	0x3ce0b847	0.02743162
223	0x3d020313	0.031741213
224	0xbd8ee341	-0.06976939
225	0x3dea6e1f	0.11446785
226	0x3e40cca1	0.1882806
227	0x3dc82da0	0.09774327
228	0x3ddc98d8	0.1077134
229	0xbd10b783	-0.03533126
230	0xbd333c16	-0.043758474
231	0x3d125d7f	0.035733696
232	0x3ba68316	0.0050815446
233	0xbc6d5c39	-0.01448732
234	0x3bbeebbc	0.0058264416
235	0x3cc2b767	0.023769094
236	0xbcbbcc83	-0.022924667
237	0x3c169cf3	0.009192693
238	0x3d2b58e6	0.041832827
239	0xbd2e678b	-0.042579215
240	0x3dddb217	0.108249836
241	0xbd06a7c6	-0.032874845
242	0x3d0005dc	0.031255588
243	0x3df176a8	0.1179021
244	0xbe806c07	-0.25082418
245	0xbd589958	-0.052880615
246	0xbd9e8698	-0.077405155
247	0x3d2e9bbc	0.04262899
248	0xbca147d2	-0.019687567
249	0x3cf09831	0.029369446
250	0xbd1696e3	-0.03676499
251	0xbd5d0125	-0.05395617
252	0xbd0b56be	-0.03401827
253	0xbcf8bbe4	-0.03036303
254	0xbd873b8a	-0.06603153
255	0xbd9fc163	-0.078005575

Linear1.bias f4 [128]
0	0xbc1a0358	-0.009400211
1	0xbb0c3151	-0.00213917
2	0x3b29ddfc	0.0025919667
3	0x3c2e079a	0.01062193
4	0x3c9454f5	0.018106917
5	0xbc12a401	-0.008950234
6	0xbd230bc5	-0.039806146
7	0xbd8ff07d	-0.070282914
8	0xbce31270	-0.027718753
9	0xbcdcdfb4	-0.026962139
10	0xbc3560ba	-0.011070425
11	0xbb132a66	-0.0022455691
12	0xbd1eff07	-0.03881743
13	0x3ccc5296	0.024941724
14	0xbd0bf170	-0.0341658
15	0x3ca3649f	0.01994544
16	0x3cad4f56	0.021155994
17	0xbd6881fa	-0.05676458
18	0x3c5497d4	0.012975652
19	0xbcaf1bf9	-0.021375643
20	0x3cd8c000	0.02645874
21	0xbd2526dc	-0.040320262
22	0xbc0198cc	-0.007909965
23	0x3ae691e5	0.0017591087
24	0xbd0b4022	-0.03399671
25	0xbc975127	-0.018471314
26	0x3c8696f2	0.016429398
27	0xbd281c69	-0.04104272
28	0xbc970a3c	-0.018437497
29	0x3cb94a13	0.02261833
30	0xbd181d9a	-0.037137605
31	0xbd3cdcda	-0.046109058
32	0xbcf880ed	-0.030334914
33	0x3d23260c	0.039831206
34	0xbd255dad	-0.04037254
35	0xbd153229	-0.03642479
36	0xbce7715d	-0.028252298
37	0xbd3facef	-0.04679578
38	0xbc4ab08c	-0.012371194
39	0xbd1d8a22	-0.03846181
40	0x3c990f7f	0.018684147
41	0xbaea9777	-0.0017897923
42	0x3b06193f	0.0020461825
43	0x3bb985e4	0.005661713
44	0xbd0faba8	-0.035075814
45	0x3bc8c60e	0.0061271256
46	0x3c0361eb	0.008018951
47	0xbbe31993	-0.006930539
48	0x3c1bea2f	0.009516283
49	0xbcee5091	-0.029091151
50	0xbbf151fb	-0.007364509
51	0xbc885b15	-0.016644994
52	0x3b1b9309	0.0023738763
53	0xbbdf03e3	-0.0068058833
54	0xbc951068	-0.0181963
55	0xbcbf203e	-0.023330804
56	0xbd168b29	-0.036753807
57	0xbd9bb048	-0.07601982
58	0xbd2bd1d9	-0.041948173
59	0x3b7ed2cf	0.0038882976
60	0x3bed4968	0.0072414167
61	0xbcbc16d5	-0.022960106
62	0xbc9f95a5	-0.019480536
63	0xbcf3a757	-0.02974288
64	0x3b70243f	0.0036642698
65	0xbcc878fa	-0.024471749
66	0xbd80093c	-0.06251761
67	0xbc48c12a	-0.012253085
68	0xbd0f4b97	-0.034984197
69	0x3d2f4ce8	0.042797953
70	0xbd24c54e	-0.040227227
71	0xbc3360ab	-0.01094834
72	0xbc26f067	-0.010189152
73	0x3cc06a95	0.023488322
74	0xbbc131a3	-0.0058958097
75	0x3b83030d	0.0039981664
76	0xbc33d29e	-0.010975508
77	0xbd312a3a	-0.04325316
78	0xbd0005f6	-0.031255685
79	0xbcedca7b	-0.029027214
80	0xbcd9b693	-0.026576316
81	0x3bd86d6d	0.0066048414
82	0x3b44c5ba	0.003002508
83	0xbd791e3c	-0.06081985
84	0xbc34b92f	-0.011030479
85	0xbd03ea06	-0.032205604
86	0x3c4f2170	0.012642249
87	0x39219b2e	0.00015411965
88	0xbd1b6c14	-0.03794487
89	0xbb2cca4c	-0.0026365696
90	0xbaf463a7	-0.0018645421
91	0xbbc409dd	-0.005982621
92	0xbc64fe68	-0.013976671
93	0x3bfa8edc	0.0076464247
94	0x3d83fc11	0.06444562
95	0x3caec52a	0.02133425
96	0x3c3d3949	0.011549302
97	0xbc8b1b53	-0.016980803
98	0xbcabad8f	-0.020956783
99	0x3cbe9d1e	0.023268279
100	0x3c52701a	0.01284411
101	0xbc40a83a	-0.011758858
102	0xbcc9bebf	-0.024627088
103	0xbd236510	-0.039891303
104	0x3d2bfb95	0.041987974
105	0xbc883fa5	-0.01663191
106	0x3c7f26f4	0.015573252
107	0xbb2ce99f	-0.0026384366
108	0xbd45d9b8	-0.048303336
109	0x3ba20e89	0.0049455804
110	0xbd3fcd01	-0.046826366
111	0x3cd3a4e3	0.02583546
112	0xbc0eda78	-0.008719079
113	0xbabc8312	-0.0014382324
114	0xbd0c8803	-0.0343094
115	0x3b602ace	0.00342052
116	0x3ca13b4a	0.019681592
117	0xbd78e82b	-0.060768288
118	0xbd5f0fcf	-0.054458436
119	0xbc96b982	-0.018399004
120	0xbd34f2fa	-0.044177033
121	0xbd4022ec	-0.046908304
122	0xbcbb1714	-0.022838153
123	0xbbcaa27e	-0.0061839214
124	0xbd2203d9	-0.03955445
125	0x3c0a4f87	0.008441812
126	0xbcd700de	-0.02624553
127	0xbd1246ff	-0.03571224

Linear2.weight f4 [128, 128]
0	0x3d4b80aa	0.04968325
1	0x3e1b79a5	0.15183122
2	0xbe41b245	-0.1891566
3	0xbe5bc776	-0.21462807
4	0x3db8d7f3	0.09025564
5	0x3e9bbb50	0.30416346
6	0x3d88a735	0.06672517
7	0xbd5d9e01	-0.054105762
8	0x3cc077f8	0.023494706
9	0xbe490f0a	-0.19634643
10	0xbe1770ec	-0.1478917
11	0xbbd29ffd	-0.0064277635
12	0xbda89813	-0.08232131
13	0xbe358e2c	-0.17730016
14	0xbe9a243c	-0.3010577
15	0xbe05cd22	-0.13066533
16	0xbd8a4316	-0.06751077
17	0x3d7463e3	0.059665572
18	0x3dabfd6a	0.08397944
19	0xbc918b2e	-0.017766561
20	0x3d180c65	0.037121195
21	0x3d167365	0.036731143
22	0x3d6d9ee0	0.058012843
23	0x3d11f1c6	0.035630964
24	0xbe32ac99	-0.17448653
25	0xbdb3bda4	-0.087764055
26	0x3daf1df9	0.08550639
27	0xbd3dd4f8	-0.04634568
28	0x3e704bbc	0.2346639
29	0xbdc77cdc	-0.09740612
30	0x3e156a1a	0.14591256
31	0xbe1118f9	-0.14169683
32	0xbee58095	-0.44824663
33	0xbdf735ed	-0.120708324
34	0x3e84eef4	0.25963557
35	0xbe07de15	-0.13268311
36	0xbe4ef98f	-0.20212387
37	0xbe17610f	-0.14783119
38	0x3e9d314b	0.3070167
39	0x3e1c1443	0.15242104
40	0x3b96bcd0	0.004600145
41	0x3da96663	0.08271482
42	0xbd23d531	-0.039998237
43	0x3e87062d	0.263719
44	0x3d1fec3b	0.039043646
45	0xbcd07792	-0.02544764
46	0x3d94980b	0.072555624
47	0xbdcd0234	-0.10010186
48	0x3e7140fd	0.23559947
49	0xbec08fb5	-0.3760964
50	0xbd9dff39	-0.077146955
51	0x3de5c36b	0.11218914
52	0xbe18da2d	-0.14926977
53	0x3c533d03	0.012892964
54	0xbe519bcf	-0.20469593
55	0x3cee9de3	0.02912802
56	0xbe6e9519	-0.23299064
57	0xbddea51c	-0.10871336
58	0x3d9c0188	0.076174796
59	0x3e1a9d9a	0.15099183
60	0xbdae1a2a	-0.08501084
61	0xbd49c1a3	-0.049256932
62	0xbe525422	-0.20539907
63	0x3e1ad344	0.15119654
64	0xbc9ae3ef	-0.018907515
65	0x3d602eae	0.054732017
66	0xbe7de41e	-0.24794051
67	0xbee85def	-0.45384166
68	0xbe53ffb8	-0.20703018
69	0x3d07cdfd	0.03315543
70	0x3d5ee3c3	0.05441643
71	0x3ca89e08	0.020583168
72	0xbd10535d	-0.03523575
73	0x3ec4322e	0.38319534
74	0xbea3506d	-0.31897298
75	0xbe99765e	-0.2997312
76	0xbcb0b559	-0.021570848
77	0xbd17b57c	-0.03703831
78	0xbeb08191	-0.3447385
79	0xbddb5b74	-0.10710803
80	0xbc5b6848	-0.013391562
81	0xbd843169	-0.06454737
82	0xbe8c64ce	-0.27420658
83	0xbe2980be	-0.16553017
84	0xbd84e093	-0.06488147
85	0x3dd06614	0.1017572
86	0xbe21caeb	-0.15800063
87	0xbe0cded7	-0.13756882
88	0xbd7bc43f	-0.06146645
89	0xbe41a412	-0.18910244
90	0xbeb5aabe	-0.35481828
91	0xbe289c76	-0.16465935
92	0xbd67822b	-0.056520622
93	0xbe4076a6	-0.18795261
94	0xbd1b8229	-0.037965927
95	0x3e8a3e65	0.27000728
96	0xbe070b16	-0.13187823
97	0x3c3d493c	0.011553105
98	0xbcc8f59e	-0.024531182
99	0xbdfb02e2	-0.12256409
100	0x3d1e34d1	0.03862459
101	0xbe7d7bd1	-0.24754263
102	0xbea9229b	-0.33034214
103	0xbe0259fc	-0.12729639
104	0xbe77f471	-0.24214341
105	0xbd51cc68	-0.051220328
106	0x3e0f14e9	0.1397282
107	0xbcff8810	-0.03119281
108	0xbdd1b73b	-0.102400266
109	0xbe61f771	-0.22067048
110	0xbd128784	-0.03577377
111	0xbdc068b3	-0.0939497
112	0x3e6d84f5	0.2319525
113	0xbda2914b	-0.07937869
114	0x3d880482	0.06641485
115	0xbe40e6e2	-0.18838075
116	0xbe2f61af	-0.17127107
117	0x3e4fea1a	0.20304146
118	0x3df0e5d2	0.11762585
119	0xbdf675ae	-0.12034164
120	0xbd03778c	-0.03209643
121	0xbc9b9cbd	-0.018995637
122	0xbd4abdea	-0.049497522
123	0x3c587393	0.013211149
124	0xbba0b0ee	-0.004903904
125	0xbd83fee1	-0.06445099
126	0xbd53d82f	-0.05171984
127	0x3e24d6ee	0.16097614
128	0xbebccd7d	-0.36875525
129	0xbe60e3dc	-0.21961921
130	0xbe508fac	-0.20367306
131	0x3db67c85	0.08910469
132	0x3dbbe6a6	0.09174852
133	0xbe4468fe	-0.19180676
134	0xbc117926	-0.008878982
135	0x3da9cf0c	0.08291444
136	0x3c5b0a35	0.013369133
137	0xbe39d3c2	-0.18147185
138	0xbe51927a	-0.20466033
139	0xbe387217	-0.18012272
140	0xbe3f9677	-0.18709742
141	0xbe8cd7b2	-0.27508312
142	0xbe0ba138	-0.13635719
143	0xbdea069d	-0.11427043
144	0x3d9c7035	0.07638589
145	0xbe7daa7a	-0.24772063
146	0xbe3d65f8	-0.18495929
147	0x3e032da4	0.1281038
148	0x3d626d0f	0.055279788
149	0xbea921e2	-0.33033663
150	0xbd9f473e	-0.0777726
151	0x3dbb4932	0.0914482
152	0xbdf1f26c	-0.118138164
153	0xbd05b86a	-0.032646574
154	0x3cfb6f5f	0.030692754
155	0x3e217044	0.15765482
156	0xbe095d54	-0.13414508
157	0xbd3b28cb	-0.0456932
158	0xbc98f082	-0.01866937
159	0xbdc9564e	-0.098309144
160	0xbe526545	-0.20546444
161	0x3e8abd0e	0.27097362
162	0xbd63b9e6	-0.05559721
163	0xbed66da7	-0.41880533
164	0xbe37d70e	-0.1795313
165	0xbdfc2c75	-0.12313167
166	0xbe0016fe	-0.12508771
167	0xbd558c52	-0.052135773
168	0xbd32326f	-0.04350513
169	0xbe7184ae	-0.2358577
170	0x35f5c610	1.8311566e-06
171	0x3db8e6fa	0.0902843
172	0xbe1c4fb9	-0.15264787
173	0x3e558db1	0.20854832
174	0xbe33e5d6	-0.17568144
175	0x3e2281dc	0.1586985
176	0xbc931897	-0.017956061
177	0xbe85e2a2	-0.2614947
178	0xbdab6e68	-0.08370668
179	0x3da531f2	0.08066167
180	0x3c803437	0.015649898
181	0xbe85541b	-0.2604073
182	0x3bb53689	0.0055301827
183	0x3dfe5df9	0.124202676
184	0xbe29b464	-0.1657272
185	0xbe368542	-0.17824271
186	0xbde2584f	-0.11052
187	0x3d811a8f	0.06303894
188	0x3e1fe164	0.15613323
189	0x3dbfb6a8	0.09361011
190	0xbe4a42b2	-0.19752005
191	0xbdfcf61d	-0.1235163
192	0x3e6d1fa7	0.23156606
193	0xbd764fd0	-0.06013471
194	0xbe9d78bb	-0.30756173
195	0xbc0eec4c	-0.00872333
196	0x3ca88fdd	0.020576412
197	0x3df5031d	0.119634844
198	0xbd00ad8b	-0.031415503
199	0x3c372d05	0.011180167
200	0xbd09160c	-0.03346829
201	0x3e1966d8	0.14980638
202	0x3a3b5538	0.00071461825
203	0xbbac3c4d	-0.005256212
204	0x3e88431e	0.26613706
205	0xbc3a687e	-0.011377452
206	0xbe0492d7	-0.1294664
207	0xbc816862	-0.015796844
208	0xbd42397f	-0.047418114
209	0xbe024536	-0.12721714
210	0x3c8bfba6	0.017087769
211	0x3c228370	0.009919032
212	0xbd2e95b1	-0.042623226
213	0x3cfc0365	0.030763337
214	0xbe05d30b	-0.13068788
215	0x3e25735f	0.16157292
216	0xbd7e0178	-0.06201312
217	0x3d6ae679	0.057348702
218	0x3dd6c53c	0.10486838
219	0xbd61dfee	-0.055145197
220	0x3dc9140f	0.09818279
221	0x3d670ee9	0.056410704
222	0xbe4c474e	-0.19949076
223	0x39f01396	0.0004579096
224	0xbb1568fd	-0.0022798174
225	0xbdacfea8	-0.08447009
226	0xbd2a2f27	-0.041548874
227	0xbeb9d9f8	-0.3629911
228	0xbe48d6f4	-0.19613248
229	0xbf041c2f	-0.51605505
230	0xbe904b8c	-0.28182638
231	0x3b90575f	0.0044049467
232	0x3d1c69b3	0.03818674
233	0x3d9a5f67	0.07537728
234	0x3d6b2f2a	0.057418026
235	0x3d0eba16	0.034845434
236	0x3d2d72d2	0.04234583
237	0xbe19442b	-0.1496741
238	0xbe11884c	-0.1421215
239	0x3d7bc773	0.061469506
240	0xbe95a580	-0.2922783
241	0xbdd5fb05	-0.10448269
242	0xbe89d58c	-0.26920736
243	0xbdb0a517	-0.086252384
244	0x3d388200	0.045045853
245	0x3e415c34	0.18882829
246	0xbcc84a8a	-0.024449605
247	0xbd3d5158	-0.046220154
248	0x3c019ebd	0.007911381
249	0x3cd0e11b	0.025497964
250	0x3d9d4a31	0.076801665
251	0xbec34174	-0.38135874
252	0x3d518118	0.051148504
253	0xbe0e9796	-0.13925013
254	0x3db46246	0.08807807
255	0x3dfe2c31	0.124107726

Linear2.bias f4 [128]
0	0xbe03849c	-0.12843555
1	0xbd997815	-0.07493607
2	0x3c8a89d6	0.016911428
3	0x3b5515e4	0.0032514269
4	0xbdc81e59	-0.09771413
5	0xbd1fbfa7	-0.039001133
6	0x3c7c81f7	0.015411845
7	0x3d8e4cc5	0.069482364
8	0x3c63b943	0.01389915
9	0x3d450d78	0.048108548
10	0xbd228ecb	-0.03968696
11	0xbdadca42	-0.08485843
12	0x3d8682da	0.06567927
13	0xbc617501	-0.013760806
14	0xbe05268e	-0.13002989
15	0xbd74586f	-0.05965465
16	0xbc8b40c8	-0.016998664
17	0xbde36ca5	-0.11104707
18	0xbc802169	-0.015640931
19	0x3dcdd448	0.10050255
20	0xbd81ad12	-0.06331839
21	0x3d51f6b2	0.051260658
22	0xbe05d9e0	-0.13071394
23	0xbd0849ad	-0.033273388
24	0xbc2e93be	-0.010655342
25	0xbdf4023a	-0.11914487
26	0xbd194632	-0.03742046
27	0x3db8efb6	0.09030096
28	0x3cf702c3	0.030152684
29	0x3d7870cf	0.060654458
30	0x3cc42500	0.023943424
31	0x3de75cc9	0.11296994
32	0x3d2ffcac	0.042965576
33	0xbcdb3569	-0.026758866
34	0x3b430957	0.0029760206
35	0x3dc27954	0.09495798
36	0x3c1bfd07	0.009520776
37	0xbdf9b023	-0.121917985
38	0xbb2c780e	-0.0026316675
39	0xbcdaf4dc	-0.026728086
40	0x3d740dc4	0.05958344
41	0xbd9c224b	-0.07623728
42	0xbd3650bb	-0.044510584
43	0xbbb28e22	-0.0054490725
44	0x3d022509	0.0317736
45	0x3b9a7a09	0.0047142548
46	0x3d90ee6f	0.070767276
47	0x3c0a1d12	0.008429782
48	0x3d818c79	0.06325621
49	0x3d3f35bb	0.0466821
50	0xbd30cb29	-0.0431625
51	0xbc801df3	-0.01563928
52	0x3d88af4f	0.066740625
53	0xbdd5e20a	-0.10443504
54	0xbe1cb661	-0.15303947
55	0x3d332083	0.043732177
56	0x3d5a457d	0.053288925
57	0xbd5e755b	-0.054311138
58	0xbdcfd71d	-0.101484515
59	0x3bf01f9b	0.0073279864
60	0xbd4fde65	-0.0507492
61	0xbe07577e	-0.1321697
62	0xbde1beeb	-0.11022743
63	0xbe189f70	-0.1490457
64	0xbb5ba5c8	-0.0033515561
65	0x3d0239b5	0.031793315
66	0x39f9a52c	0.00047616044
67	0xbc580a8c	-0.013186108
68	0x3cef2c91	0.029196056
69	0xbdebe693	-0.11518588
70	0xbcdddd6b	-0.02708312
71	0xbd85ac15	-0.06526963
72	0xbdbfd909	-0.09367568
73	0x3cddfa78	0.027096972
74	0x3d941674	0.07230845
75	0xbce0dc00	-0.027448654
76	0xbd29bfd5	-0.04144271
77	0xbc9bfa5d	-0.019040281
78	0x3d9b8853	0.07594361
79	0xbc6a7ce0	-0.014311999
80	0x3dd351d6	0.10318343
81	0x3d55e648	0.052221566
82	0xbe0471c5	-0.12934025
83	0xbddd6b00	-0.10811424
84	0x3d8faeec	0.070157856
85	0xbd39498b	-0.04523615
86	0xbd969a38	-0.07353634
87	0xbd3b4e00	-0.045728683
88	0xbc88ae7c	-0.016684763
89	0x3da57ffb	0.08081051
90	0xbb6ed534	-0.0036442997
91	0x3c16edd7	0.009211979
92	0x3cba5a3c	0.022748105
93	0xbd99b038	-0.07504314
94	0x3d3eb24c	0.046556756
95	0xbca2c321	-0.019868435
96	0xbba974c7	-0.0051713916
97	0xbca99b5e	-0.020703968
98	0xbd2977ff	-0.041374203
99	0x3d32b286	0.043627284
100	0x3dd83e00	0.105587006
101	0xbd91bdde	-0.071162924
102	0xbd86df1a	-0.06585522
103	0xbd556248	-0.05209568
104	0xbd102e8c	-0.03520064
105	0xbda0cdc3	-0.07851746
106	0x3d9facf2	0.077966586
107	0xbdc93187	-0.098239
108	0x3dac9a51	0.08427871
109	0xbde71aff	-0.11284446
110	0x3d78bcf4	0.060727075
111	0xbd9a4223	-0.07532146
112	0xbc977e72	-0.018492911
113	0xbd838f66	-0.064238355
114	0xbd00db88	-0.03145936
115	0xbdce7812	-0.10081495
116	0x3d6949a3	0.05695499
117	0x3ccb9f84	0.024856336
118	0xbcddd70c	-0.027080081
119	0x3dd568cc	0.10420379
120	0xbdc9cff5	-0.09854118
121	0x3cbd55f8	0.023112282
122	0x3dbbfcd7	0.09179085
123	0xbdcc3ff4	-0.099731356
124	0x3d9e28e8	0.07722646
125	0xbd8c6d64	-0.06856802
126	0xbcc2ed2c	-0.023794733
127	0xbdd195b7	-0.10233634

Linear3.weight f4 [128, 128]
0	0xbe5209f3	-0.20511608
1	0x3e7f8efa	0.24956885
2	0xbdcaa615	-0.09894959
3	0xbab2ab18	-0.0013631312
4	0xbe33f48b	-0.17573754
5	0xbe57834c	-0.2104618
6	0x3d2f0a3b	0.042734366
7	0x3e53d81a	0.20687905
8	0xbe48fc5a	-0.19627514
9	0xbeb62c2d	-0.35580578
10	0xbd8f4281	-0.069951065
11	0x3e20a400	0.15687561
12	0x3e35fc08	0.17771924
13	0xbc4ef108	-0.0126307085
14	0xbe2c51bf	-0.16828059
15	0xbdc01521	-0.0937903
16	0x3e02f30a	0.12788025
17	0x3dcef029	0.10104401
18	0xbe961e45	-0.2931997
19	0x3e1e2108	0.15442288
20	0xbed55e55	-0.41673532
21	0xbe704419	-0.23463477
22	0xbe317ac2	-0.17331985
23	0x3e51c34a	0.20484653
24	0x3ebf9980	0.374218
25	0xbe4d7d64	-0.20067364
26	0x3e065619	0.13118781
27	0x3d573f30	0.052550495
28	0x3e1aaf3d	0.1510591
29	0xbd68af03	-0.05680753
30	0x3d92576f	0.07145583
31	0xbe68ba2b	-0.22727267
32	0x3e346158	0.17615259
33	0xbe9d452e	-0.30716842
34	0x3c1c6eea	0.009547928
35	0x3db15825	0.0865939
36	0xbe11a53f	-0.14223193
37	0xbc9f473d	-0.019443149
38	0xbde16330	-0.11005247
39	0x3dc31134	0.095247656
40	0xbd0f7105	-0.035019893
41	0x3decb2a4	0.115575105
42	0x3d6c8272	0.05774159
43	0x3e844283	0.25831994
44	0x3da379d2	0.0798222
45	0xbc4938a6	-0.012281572
46	0xbee56e7c	-0.44810855
47	0xbe5ac1c2	-0.21362975
48	0xbd864ded	-0.06557832
49	0x3e001657	0.12508522
50	0x3ddd48ec	0.10804924
51	0x3ddc0e52	0.10744919
52	0x3d8b48e3	0.068010114
53	0xbe71e35a	-0.23621884
54	0x3c88643b	0.016649356
55	0xbedc31d4	-0.43006766
56	0xbe8cea6c	-0.275226
57	0x3e175bcc	0.14781111
58	0xbd1be17a	-0.038056828
59	0x3d1843b8	0.037173957
60	0xbe38bfc0	-0.18041897
61	0xbcac4f23	-0.02103383
62	0xbe95c094	-0.29248488
63	0x3ba41cdd	0.0050083236
64	0x3c3bb67b	0.011457081
65	0xbcf8f322	-0.030389372
66	0x3d821c5f	0.063530676
67	0xbe8c4205	-0.2739412
68	0xbe0f18df	-0.13974331
69	0x3df4761f	0.11936592
70	0x3e33f9fa	0.17575827
71	0x3e1aa81c	0.15103191
72	0xbd68b21f	-0.056810495
73	0x3ab8f0ee	0.0014109889
74	0x3defafa7	0.11703425
75	0xbe642a40	-0.22281742
76	0x3e23c1c4	0.15991884
77	0x3ea03771	0.31292298
78	0x3dbe7169	0.09298975
79	0xbe14b790	-0.14523149
80	0x3c9adbf2	0.018903706
81	0x3d90deac	0.07073721
82	0xbe27bbab	-0.16380183
83	0x3ccd2b76	0.025045138
84	0xbd5812e8	-0.052752405
85	0x3be3dfcf	0.0069541703
86	0xbe899ddb	-0.26878247
87	0xbd9755b5	-0.07389394
88	0xbee1531b	-0.44008717
89	0x3e5cec8b	0.21574609
90	0xbe7c5a81	-0.246439
91	0x3c802478	0.01564239
92	0x3e34c327	0.1765257
93	0x3e3b00e5	0.1826206
94	0xbd91084b	-0.0708166
95	0xbe82cd24	-0.25547135
96	0xbd5a4516	-0.05328854
97	0xbf0c50fe	-0.54811084
98	0xbe10e661	-0.14150383
99	0x3dcf8767	0.10133248
100	0x3d83c619	0.064342685
101	0xbd9b6160	-0.07586932
102	0x3eab7705	0.33489242
103	0x3e510581	0.20412256
104	0xbe4ffedf	-0.2031207
105	0x3e039a3f	0.12851809
106	0xbdf8925e	-0.12137292
107	0xbc5ba9c8	-0.013407178
108	0xbe0e386b	-0.13888709
109	0xbdfedf64	-0.12444952
110	0x3d87bb06	0.06627469
111	0xbdcfb1ac	-0.1014131
112	0xbe9971be	-0.2996959
113	0x3cee06b6	0.029055934
114	0xbea78523	-0.32718763
115	0xbdc147c0	-0.09437513
116	0x3db42510	0.087961316
117	0xbddd0dac	-0.10793623
118	0xbeb002b4	-0.34377062
119	0x3e35b007	0.1774293
120	0xbdba9527	-0.0911048
121	0xbd1498db	-0.036278587
122	0x3d84ff08	0.06493956
123	0xbe4a4e27	-0.19756375
124	0xbd9cc5d6	-0.07654922
125	0xbe74e7d6	-0.23916563
126	0xbe6087af	-0.21926759
127	0x3e9065bf	0.28202626
128	0x3cfa1170	0.030525893
129	0xbddd1ac4	-0.10796121
130	0xbd9994d4	-0.0749909
131	0x3ddf928d	0.10916624
132	0xbd513b94	-0.05108221
133	0x3f09362e	0.53598297
134	0xbea8e73e	-0.32988924
135	0xbd86d616	-0.065838024
136	0xbe1d0d1f	-0.15337037
137	0x3e26c066	0.16284332
138	0xbe17349d	-0.14766164
139	0x3d21f427	0.039539482
140	0xbc877af6	-0.016538125
141	0x3d0cd7fa	0.03438566
142	0xbec4cf7e	-0.38439554
143	0x3e3cf2fd	0.18452068
144	0xbd98564b	-0.07438334
145	0xbef3544d	-0.47525254
146	0x3c305672	0.010762798
147	0x3aef89a9	0.0018275279
148	0x3da16824	0.078811914
149	0xbcd81041	-0.026374938
150	0xbe81222e	-0.2522139
151	0xbd61ce4b	-0.055128377
152	0x3d4b2a62	0.049600966
153	0xbd6625fc	-0.05618857
154	0xbde2fd85	-0.11083511
155	0xbcb594d9	-0.022165703
156	0x3acb5266	0.0015512228
157	0xbede0cd4	-0.43369162
158	0x3d13e386	0.036105655
159	0xbce90cf4	-0.02844856
160	0x3cd91a8f	0.026501922
161	0x3e7378a5	0.23776491
162	0x3d14447c	0.036198124
163	0x3ccd81b3	0.02508626
164	0x3e34fcda	0.1767458
165	0xbe2f2680	-0.1710453
166	0xbe8607b1	-0.26177743
167	0xbead0d1e	-0.3379907
168	0xbe2a6055	-0.1663831
169	0xbe91b4bb	-0.284582
170	0xbe275529	-0.1634108
171	0xbe058259	-0.13038005
172	0x3a5e5753	0.000848164
173	0xbe3399e0	-0.17539167
174	0xbd6b463b	-0.057440024
175	0xbdf72d47	-0.12069183
176	0xbebdf966	-0.37104338
177	0x3c8eed74	0.01744721
178	0xbf1049c4	-0.5636256
179	0xbe1d0195	-0.15332635
180	0xbcbf3aa4	-0.023343392
181	0x3d9f8a76	0.07790081
182	0xbd858dd4	-0.06521192
183	0xbdaa0ca3	-0.083031915
184	0xbb582e27	-0.0032986493
185	0xbe06afd2	-0.13153008
186	0xbdce2249	-0.10065133
187	0x3e23bfb1	0.15991093
188	0xbda09553	-0.07840981
189	0xbe2ca1e2	-0.16858628
190	0x3ed0bef6	0.40770692
191	0x3e13b44d	0.14424248
192	0xbe91f981	-0.2851067
193	0x3de901ec	0.1137732
194	0x3d032486	0.032017253
195	0xbe201911	-0.15634562
196	0x3d946852	0.0724646
197	0xbe8f5083	-0.27991113
198	0x3e19fbd5	0.15037473
199	0xbe064b80	-0.13114738
200	0xbed89eba	-0.423086
201	0xbe315d81	-0.17320825
202	0x3e4d5c2d	0.20054694
203	0x3e635ff9	0.2220458
204	0xbea33ea9	-0.31883743
205	0xbe6715ca	-0.22566906
206	0xbe69f747	-0.22848235
207	0xbcb7b668	-0.022425845
208	0xbe0fd08e	-0.14044401
209	0xbe4d2e4d	-0.20037194
210	0xbdcca345	-0.09992079
211	0xbed0e67e	-0.40800852
212	0x3c8aa2e1	0.01692337
213	0x3dadc407	0.08484655
214	0xbd422007	-0.047393825
215	0x3dcbf149	0.09958131
216	0xbd122d5f	-0.0356878
217	0xbe710d00	-0.23540115
218	0xbd2ae282	-0.04171992
219	0x3aed25d4	0.0018092939
220	0xbd992376	-0.07477467
221	0x3d2913fd	0.041278828
222	0x3d0bec3d	0.03416084
223	0xbd61bb53	-0.055110287
224	0x3c173770	0.009229526
225	0x3dd8863d	0.10572479
226	0xbd6b48a5	-0.057442326
227	0xbdd3b1cc	-0.103366464
228	0x3dd4b196	0.10385434
229	0xbd9fd214	-0.07803741
230	0xbe16f040	-0.14740086
231	0x3e0c1295	0.13678963
232	0xbe2b7d98	-0.16747129
233	0x3de9a9d7	0.114093475
234	0x3dd9734e	0.10617696
235	0xbe8e82a6	-0.27834052
236	0xbd8d2593	-0.06891932
237	0xbd3fb1e7	-0.04680052
238	0xbd919cf1	-0.07110012
239	0xbe9eda80	-0.31026077
240	0x3c46fba3	0.012144956
241	0xbd747bed	-0.059688497
242	0xbc68ac0f	-0.014201178
243	0x3e872a3d	0.26399413
244	0x3b1caf29	0.0023908115
245	0x3d6f7c6e	0.058468275
246	0x3dcf9553	0.10135903
247	0xbd8609ed	-0.06544862
248	0x3e9f7aad	0.31148282
249	0xbda347bf	-0.07972669
250	0x3d68b34a	0.05681161
251	0x3e25503a	0.16143885
252	0x3db24249	0.08704049
253	0x3d4b2a6b	0.049601
254	0x3c832c84	0.016012438
255	0x3d9bcad6	0.07607047

Linear3.bias f4 [128]
0	0x3db38c32	0.087669745
1	0x3dd89915	0.10576073
2	0xbe226d5f	-0.15862034
3	0x3ddd50de	0.1080644
4	0x3d8b0869	0.067887135
5	0x3caf964f	0.021433977
6	0x3d7f1773	0.062278222
7	0x3c8ec4a2	0.017427746
8	0x3e08afce	0.13348314
9	0xbc61606b	-0.013755898
10	0x3d27ce3a	0.040968157
11	0x3d341b30	0.04397124
12	0xbcf225bf	-0.029559014
13	0xbdc9dea3	-0.09856918
14	0xbdd298ee	-0.10283075
15	0x3dd23ef7	0.10265916
16	0x3dc5d4d8	0.09659737
17	0x3d96cd2a	0.07363351
18	0x3da40675	0.08009044
19	0x3d4a9566	0.049458884
20	0x3d91d18f	0.07120048
21	0x3dba1742	0.09086467
22	0x3d35268e	0.04422622
23	0xbc49496f	-0.012285574
24	0xbd932dff	-0.071865074
25	0x3da11c84	0.07866767
26	0xbdfd7d6e	-0.123774394
27	0x3dc1cf92	0.09463419
28	0x3bfa6d31	0.007642411
29	0x3cf544a4	0.029939957
30	0x3d82f0f0	0.063936114
31	0xbdd9310c	-0.10605058
32	0x3c8760fe	0.016525742
33	0xbe1e4b45	-0.154584
34	0x3db3c74a	0.08778246
35	0xbdfd4206	-0.123661086
36	0xbdb7f07a	-0.08981414
37	0x3ca79c63	0.020460313
38	0x3deac2b6	0.114629194
39	0x3c5fa33a	0.013649756
40	0x3d41eef2	0.047347017
41	0x3da7e6f5	0.081983484
42	0x3cfc6adc	0.030812673
43	0xbcf752ec	-0.030190907
44	0xbdf07f85	-0.117430724
45	0xbc95e73d	-0.01829874
46	0xbd66d4a9	-0.056355152
47	0xbd4830f7	-0.04887482
48	0x3d2c01cf	0.041993912
49	0x3d7bb6df	0.061453696
50	0xbdde07df	-0.10841345
51	0x3d48025a	0.048830368
52	0xbde74301	-0.11292077
53	0xbd09c05a	-0.033630706
54	0xbdec4820	-0.11537194
55	0xbe2ed7f2	-0.17074564
56	0x3d6259ef	0.05526155
57	0x3d431407	0.04762652
58	0x3d841530	0.06449354
59	0xbde6d263	-0.11270597
60	0xbd90001d	-0.070312716
61	0xbda34447	-0.07972007
62	0x3d5d9fe5	0.054107565
63	0x3cf2decc	0.029647253
64	0xbe3dac11	-0.1852267
65	0x3d566080	0.052338123
66	0x3daee825	0.08540372
67	0xbe0046d0	-0.12527013
68	0xbdcd5a67	-0.100270085
69	0x3dbec137	0.093141966
70	0x3cc2a01d	0.023757989
71	0xbbd341c6	-0.00644705
72	0xbbe91bd5	-0.0071139135
73	0x3d6f41dc	0.058412418
74	0x3c972df4	0.01845453
75	0xbda2ceb7	-0.07949584
76	0x3cb88a5d	0.022526914
77	0x3d95de98	0.07317847
78	0x3c6eaffd	0.014568326
79	0x3de2e81e	0.11079429
80	0xbdce7546	-0.10080962
81	0x3d358e15	0.044324953
82	0x3d783238	0.060594767
83	0xbc63ec00	-0.013911247
84	0x3dd073cb	0.10178336
85	0x3da516d5	0.080609955
86	0x3e227628	0.15865386
87	0x3d62b980	0.055352688
88	0xbdff2b1a	-0.12459393
89	0x3a43a7e9	0.000746368
90	0xbcb1575a	-0.021648098
91	0x3d0fa438	0.03506872
92	0x3ddf7ace	0.10912095
93	0x3d8bf8f5	0.06834594
94	0xbdf7768b	-0.12083157
95	0x3d5ad038	0.05342123
96	0x3d54e371	0.051974718
97	0x3d8de960	0.069292784
98	0x3d95a417	0.07306688
99	0xbdd6fe2d	-0.10497699
100	0x3d3e119e	0.04640352
101	0x3d36d4b4	0.044636443
102	0xbaaa6e78	-0.0013002893
103	0x3deff96d	0.11717496
104	0xbdddd137	-0.1083092
105	0x3d1e6396	0.03866919
106	0xbd3fb27a	-0.046801068
107	0x3d785896	0.060631357
108	0xbab87268	-0.0014072182
109	0x3ddf4d14	0.10903373
110	0x3db45344	0.08804944
111	0x3d1ec3f0	0.03876108
112	0x3d371135	0.044694144
113	0x3d9044a6	0.07044344
114	0xbd855cfb	-0.06511875
115	0xbd9700d6	-0.07373206
116	0xbe0d9ec2	-0.13830093
117	0x3c16825d	0.0091863545
118	0x3d17a4e5	0.03702249
119	0x3d5e565a	0.05428157
120	0x3dc9f1e1	0.09860588
121	0x3de29b84	0.110648185
122	0x3e0bcb80	0.13651848
123	0x3c080c29	0.00830368
124	0x3c90ae09	0.017661111
125	0x3ca979fe	0.020688053
126	0xbd26bd69	-0.04070798
127	0x3d93d131	0.072176345

Linear4.weight f4 [1, 128]
0	0x3e83be85	0.25731292
1	0xbd908668	-0.07056886
2	0xbedbefbf	-0.4295635
3	0xbdc620aa	-0.09674199
4	0x3e74c56a	0.23903432
5	0x3e90ed50	0.28306055
6	0x3e09d4c3	0.13460068
7	0x3e56ae56	0.20964941
8	0xbe5c779d	-0.21530004
9	0xbeed9dab	-0.46409354
10	0xbe5a3350	-0.21308637
11	0xbeafa390	-0.34304476
12	0xbe28b2d4	-0.16474468
13	0xbd4f43d4	-0.050601795
14	0xbda02b4d	-0.07820759
15	0x3e8538c8	0.26019883
16	0xbdb948cf	-0.0904709
17	0x3e46ba8f	0.19407104
18	0x3ece4a72	0.40291172
19	0x3e45212b	0.19250934
20	0xbdb4ab88	-0.088217795
21	0x3e91bb7e	0.28463358
22	0x3e0d744c	0.13813895
23	0x3e873981	0.2641106
24	0xbeb260a9	-0.3483937
25	0x3e1de39e	0.1541886
26	0xbdabc6af	-0.08387505
27	0x3e317e0f	0.17333244
28	0x3e5197d3	0.20468073
29	0x3e0e4eae	0.13897201
30	0xbde58ab6	-0.11208098
31	0x3c9f580f	0.01945117
32	0xbe4f85b4	-0.20265847
33	0xbe875ef5	-0.26439634
34	0x3e4e78df	0.20163296
35	0xbdede42b	-0.11615785
36	0xbe883228	-0.26600766
37	0xbd119f9e	-0.035552613
38	0xbe0e3b5b	-0.1388983
39	0x3e7b9aa5	0.24570711
40	0x3e5fbcf5	0.21849425
41	0xbe0fc044	-0.14038187
42	0x3e94dc61	0.29074386
43	0x3f135d11	0.57563883
44	0xbd84d0c6	-0.06485133
45	0xbc9460e1	-0.018112602
46	0xbeb5f11c	-0.35535514
47	0xbeceaeeb	-0.40367827
48	0x3e9c731e	0.30556577
49	0xbddc116b	-0.1074551
50	0xbf01e364	-0.50737596
51	0x3e970be4	0.2950126
52	0xbe943cc5	-0.28952613
53	0x3ea036b1	0.31291726
54	0xbebc6b43	-0.36800584
55	0xbeca2f87	-0.39489385
56	0xbeac429c	-0.3364457
57	0x3e6d3d96	0.23168024
58	0xbdd01b66	-0.10161476
59	0xbe0e7e17	-0.13915287
60	0xbd377984	-0.04479362
61	0xbe6d2d47	-0.23161803
62	0x3dca00c9	0.09863431
63	0x3dcc3599	0.099711604
64	0xbe762c05	-0.2404023
65	0x3ec37969	0.38178566
66	0x3e0a8b3d	0.13529678
67	0xbe352e06	-0.17693338
68	0xbe30b1fb	-0.17255394
69	0x3db13596	0.08652799
70	0xbeaed8fa	-0.34149915
71	0x3e590ece	0.21197054
72	0xbead769a	-0.33879548
73	0x3e662d61	0.22478248
74	0x3cb7abf9	0.02242087
75	0x3e44a6cb	0.19204251
76	0xbd028caf	-0.031872448
77	0x3e39b846	0.18136701
78	0x3e98b381	0.2982445
79	0x3e87ff1b	0.26561818
80	0xbe89a520	-0.26883793
81	0x3e82b867	0.25531313
82	0x3e37aa5a	0.17936078
83	0x3ead66c1	0.33867458
84	0xbd9a03b0	-0.075202346
85	0x3e32f0b8	0.1747464
86	0xbe794677	-0.24343286
87	0x3e91225a	0.2834652
88	0x3c9f8b3e	0.019475576
89	0x3ed25b8c	0.4108547
90	0xbcf6c218	-0.030121848
91	0x3e897e5c	0.26854217
92	0xbdb3f175	-0.08786289
93	0x3e8d1d4b	0.2756141
94	0x3bca1d62	0.0061680535
95	0x3de856bf	0.113446705
96	0xbe108192	-0.14111927
97	0x3e90bb23	0.28267774
98	0x3ea6be1e	0.32566923
99	0x3d05f451	0.0327037
100	0x3e570874	0.20999318
101	0xbe2bdcb3	-0.16783409
102	0x3df73178	0.12069982
103	0x3eab2b85	0.3343164
104	0xbe1e85ee	-0.15480778
105	0x3e49f998	0.19724119
106	0xbebf5f98	-0.3737762
107	0x3eeae80d	0.45880166
108	0xbd6d5e51	-0.057951275
109	0x3e0c9d51	0.13731886
110	0x3e1c72a7	0.15278111
111	0x3dfb2996	0.12263791
112	0xbde3a873	-0.111161135
113	0x3e2a6c93	0.1664298
114	0xbdb722cd	-0.089421846
115	0xbc5b83c9	-0.013398119
116	0xbe0f8687	-0.14016162
117	0x3eb13640	0.34611702
118	0x3e80beda	0.25145608
119	0xbe376933	-0.17911224
120	0x3e6180ca	0.22021785
121	0xbda4f2ed	-0.08054147
122	0xbe364111	-0.17798258
123	0xbe0e5b84	-0.13902098
124	0xbe236877	-0.15957819
125	0xbd202262	-0.03909529
126	0xbde43b1c	-0.11144087
127	0x3e8caab3	0.27473983
