database/Neural_Salary_Model.pth (torch, 990480 bytes, 7 tensors)

Linear1.weight f4 [128, 1668]
00000000: 1b53 4abc 7485 20bc e04c b73c c304 033c
00000010: a01c c7ba 0ba6 da3b 454f 903c e5b0 5f3c
00000020: ea83 64bc 1740 cc3c bca2 2e3c e928 8f3c
00000030: 7d5f a2bc 4ce6 8dbc 3546 2fbc 71bc 7d3a
00000040: 3e38 273b 2a0d b7bc cdf0 77bc bef7 803b
00000050: 2576 04bc 863d 5c3c 61fd 5e3c 07b4 31bc
00000060: ae78 4f3c 3ecb 81bb e64e 143b 9f83 abbc
00000070: 2548 903c daa1 1a3c 8864 dbbc 2843 aabc
00000080: bb7a e7bb e367 743c 3153 503c 40e9 a6bc
00000090: eabe 813c 5ef7 be3c 0acf 9abb e14c 943b
000000a0: 3e15 463a 6f2c a53c cacd 7bbc 5f5e bebc
000000b0: 8915 c3bb fcea 983a 34ab be3c de45 a33a
000000c0: 1870 83bc 97b9 c4bc 5b9c e0bb 60b1 cabb
000000d0: 16f9 7c3c befd b9bc 78b9 843b d5ae 9a3c
000000e0: 06b0 4cbc 1d32 fb3a 0804 3bbc bf2b 4a3c
000000f0: cba2 42bc 193f 9d3c 0ab0 41bc c12b 873c
00000100: 1f68 27bc c53a aebc 418d be3c c3eb f33c
00000110: 3406 903c e11c 1cbc 3821 993b e124 4dbb
00000120: a0e3 083b 1a22 ab3c ef13 40bc 951d 913c
00000130: 5868 12bc 2b11 9f3c 84fa b9bc 4814 293b
00000140: 7320 a4bc 3c28 1fbc 19df 34bb a344 98bc
00000150: de84 1fbb 6ab0 2cbc a797 20bb e9f8 883c
00000160: 5f4e e4bb f596 5abc 48ca b8bc a8aa fb3b
00000170: 9698 f1bb bd8e 3a3c 3dad 873c eba6 d0bb
00000180: fb53 11bc 5ed3 483c cedd 513b 4a26 b8bc
00000190: 193d 803c 11f9 a03c d3c0 6ebc 5d45 583c
000001a0: 75ba b5bc 41df 33bc 790a efbb d633 953b
000001b0: c1bd bebc 8eef d83b 9014 013b f93e 7fbc
000001c0: 81c5 2cba 7f5d 763c 7719 02bb 8579 a7bb
000001d0: 0550 443c 3417 663c a5e8 1bbc b52e 7dbc
000001e0: 059a 77bc 57df a7bc 08e7 bbbb 41c6 3f3c
000001f0: 3258 b33c 4282 4e3c ea45 bfbc e800 403c
00000200: 1251 e9ba 5c10 d2bb 6603 9f3c f36b 51bc
00000210: 9fde 343c 7885 803c 19cd acbc 53d9 82bc
00000220: 3a06 9abb 2c55 df3c 891d 11bc a551 fdba
00000230: 5415 8cbc 6130 2dbc 94d6 28bc ddb6 ba3c
00000240: 3366 97bc c463 0c3c 1f0e a33c 8847 bfbc
00000250: a592 413c be40 9c3c ccd1 a3bc 88d2 993c
00000260: a787 123b f03e 9fbc 28a8 eb3b 5636 88bc
00000270: 77db 5cbc a4db 433b 9339 393c cf67 a7bc
00000280: 91af 17bb 9edd 923a 6cbb df3c 8d37 bb3c
00000290: ffd4 9abc 6723 b1bc 24e6 5cbc b043 493c
000002a0: a40d 0bbc 97b1 863a 1032 a2bc 46e4 09bc
000002b0: a346 2d3c ddee ffbb e169 23bb 95b0 72bc
000002c0: 7dcb 9bbc bce1 1abc a841 40bb 0629 83bb
000002d0: 0c22 ca3c b7e0 bcbc 5653 c63c ecf6 b63a
000002e0: 4687 38ba 56ba afbb 5ff3 a23c 0de2 5f3c
000002f0: 76a0 85bc c7e9 133c a984 873c 4d78 843c
00000300: 2bb3 453c 9e8f 853c f064 73bc 9eff b33c
00000310: 2db3 04bc 6613 d13c 8f8e d53b 49de 06bc
00000320: 52ff 16bb b9c2 543c 13fe 8a3c f68a 013c
00000330: 0c51 c03c 9a4c a93c 8afb 1c3c d07e 983c
00000340: 114a 1b3c 4bec 70bc 1833 f53a b3b1 8dbc
00000350: 084b 3fbc a8fe 17bc 7466 a93c 6d0b 2bbc
00000360: 039d abbc 0383 96bc 6c1d 7a3c 8f79 263a
00000370: 06b8 4d3c 560a 13bc 2d76 2a3c 0b64 babc
00000380: cf37 5abc f8d4 b93c c2a8 9e3c 0724 c2bc
00000390: ceba 68bc 3ee5 37bc e779 b53c 53ee 6d3c
000003a0: 346c 913c 9a8c 933c 1af0 00bc 70b0 20bc
000003b0: 7781 3d3c 0e0f d93c e0ce 9a3c 0a7c 5b3c
000003c0: fa9e b73c 5b85 49bc a3c0 db3b 6213 87bc
000003d0: 8444 a8bc f880 a2bc b8c6 21bc a4e9 6d3c
000003e0: d726 883b 0782 013d ec06 8cbc d0ab 89bc
000003f0: 90e9 33bb 3884 f5bb 5453 4e3c 9bb5 9cbc
-0.012348915 -0.009797443 0.022375524 0.007996741 -0.0015191026 0.006672626 0.017615924 0.013653015
-0.013947466 0.024932904 0.010658916 0.017475562 -0.019820923 -0.017321728 -0.010697891 0.0009679264
0.00255157 -0.022345144 -0.015133095 0.003935783 -0.0080848085 0.013442403 0.013610215 -0.0108461445
0.01266305 -0.003960996 0.0022630035 -0.020936785 0.017612526 0.0094380025 -0.026781335 -0.020783976
-0.007064191 0.014917347 0.012715147 -0.020374894 0.015838105 0.023311313 -0.004724388 0.0045257662
0.0007556266 0.02016279 -0.015368888 -0.023238359 -0.005953495 0.001166671 0.023274995 0.0012456735
-0.016044661 -0.024014277 -0.0068545765 -0.0061856955 0.015440246 -0.022704002 0.00405043 0.018882195
-0.012493139 0.0019164715 -0.011414535 0.012339531 -0.011879633 0.019195126 -0.011821756 0.016500356
-0.0102176955 -0.021268258 0.023260714 0.029775506 0.017581083 -0.00952837 0.0046731494 -0.00313025
0.0020887628 0.020890284 -0.011723503 0.017714301 -0.00893601 0.019417366 -0.022702463 0.0025799442
-0.020035004 -0.0097141825 -0.0027598797 -0.018587416 -0.002434067 -0.010540107 -0.0024504454 0.016720252
-0.0069673504 -0.013341655 -0.022557393 0.007680256 -0.007372926 0.0113865705 0.016562099 -0.0063675544
-0.00887012 0.012257425 0.0032023075 -0.022479195 0.015654134 0.019650014 -0.01457234 0.013200131
-0.022183636 -0.010978521 -0.0072949496 0.0045532985 -0.023283841 0.006620354 0.0019696094 -0.015578979
-0.00065907097 0.01503694 -0.0019851604 -0.005110922 0.011981969 0.014043618 -0.009515916 -0.01545303
-0.015112405 -0.020492239 -0.005734328 0.011704982 0.02189264 0.012604298 -0.023348767 0.011718966
-0.001780065 -0.0064106416 0.0194108 -0.012782085 0.011039405 0.015688643 -0.021093892 -0.015972769
-0.0047004493 0.027262293 -0.008857139 -0.00193267 -0.017100014 -0.010570616 -0.010305066 0.022792274
-0.01848135 0.008568708 0.019904194 -0.023349538 0.011814748 0.01907384 -0.0199975 0.018777147
0.0022358687 -0.01943919 0.0071916766 -0.016627472 -0.013480059 0.0029885555 0.011305231 -0.020435242
-0.0023145417 0.0011204963 0.02731105 0.022853637 -0.018900393 -0.021623326 -0.013482604 0.012284204
-0.008487139 0.0010276315 -0.019799262 -0.008416241 0.010575923 -0.007810457 -0.0024934935 -0.014812608
-0.01901793 -0.009453233 -0.002933601 -0.004002693 0.024674438 -0.023056371 0.02420966 0.0013959087
-0.00070392 -0.005362789 0.019891439 0.013664735 -0.016311865 0.009027905 0.01654275 0.016170645
0.012066643 0.016303834 -0.014855608 0.021972474 -0.008099359 0.025521945 0.0065172384 -0.008231708
-0.0023040366 0.012985879 0.016966855 0.007906666 0.023476146 0.02066641 0.009581456 0.018615156
0.009478108 -0.014704774 0.0018707244 -0.017296648 -0.011675604 -0.009277023 0.020678736 -0.010439736
-0.020948892 -0.018373018 0.015265804 0.0006350511 0.012556082 -0.008974632 0.010404152 -0.022752782
-0.01331897 0.02268456 0.01936758 -0.02369882 -0.014204694 -0.011224089 0.022152854 0.014522153
0.01775179 0.01801138 -0.007869745 -0.009807691 0.011566511 0.026496436 0.018897474 0.013396272
0.022414673 -0.012299861 0.0067063137 -0.016488735 -0.020540483 -0.019836888 -0.009874038 0.014521036
0.0041550207 0.031618144 -0.017093144 -0.01680556 -0.0027452447 -0.0074925683 0.012593109 -0.019129565

Linear1.bias f4 [128]
00000000: d0ee 65bc 556c e03c 6440 9d38 16c6 623c
00000010: 8bd5 ef3b ae84 44bb 4a19 9ebb c4d8 c63c
00000020: d86d 553b b587 bf3c 348c 12bc 72fd f7ba
00000030: a0f2 3339 1189 8f3b e199 8f3c 68d1 a83c
00000040: 4d25 863b c78e 053c ca89 c33a ca63 4e3c
00000050: 405a c13c 4249 163c 2117 93bc 30b9 ea3c
00000060: 7d37 fa3c 960b 903c 0647 80bc 5b9a f43b
00000070: 5cc3 103c d15f b9bb 5851 a13b 7dce a8bc
00000080: 1f98 403c d28c 213b 5277 1f3c 89c1 8f3c
00000090: a32f 123c 7174 c43b c5e5 b53c 68eb a3bc
000000a0: 13d8 853b 052c 863c 6b7b 863c 0f7f 04bc
000000b0: e33e 223b 21cd a9bb 1895 8f3c 633e cfbb
000000c0: 7934 96bb abfd ecbb 3275 6c3b 5ce1 d8bb
000000d0: b3ad 033d 8587 8a3b 0ecf d23a aa95 48bc
000000e0: 318a 57bb 8ab4 98bb c956 083b 6090 b03c
000000f0: 588e 19bb e38c bb3a 724b a6b9 1dcc 54bc
00000100: 729e 31bc 29b1 793c fe6e 283c 5173 903c
00000110: e2de 59bb 5e47 cab9 bfc6 e83a d076 b73b
00000120: 34c7 22bb 44a5 033d 3a10 46bb 8752 8dbb
00000130: 9480 143c 1ffc af3c 18af f539 52e5 ac3c
00000140: 3bf1 fd3b 2e2f abba 9c9e ed3b 3031 31bc
00000150: e6c7 8ebc 2986 7a3c 4d21 dcbb b24a a43c
00000160: 0331 b23c 4a87 873b fdc2 223b bfa4 b43c
00000170: 3588 9b3c cdc9 67bc 6c42 f0bc 517d aebb
00000180: 149d 41bc 242c 073d f048 0c3b 47fd 333c
00000190: 7fe0 43bc d38a b1bc 0a98 17bc d068 543c
000001a0: 8060 16bb c437 de3c be60 bb3c 4fc9 f73c
000001b0: 3c35 1e3c 2822 f83b 5496 4c3b 73d0 8cbb
000001c0: dc4e 6abc a656 573c e467 2cb9 2e4f 953c
000001d0: 25c8 dd3c 483e 46bc f588 ea3b 6336 943b
000001e0: 2eb5 d63c aa04 563c c326 9d3c 0df9 d43a
000001f0: c687 e83a 85d1 b73c 4cbf 42bc a88a 26bc
-0.014033988 0.027395407 7.498337e-05 0.013841173 0.0073191575 -0.002998631 -0.004824792 0.024273284
0.0032566693 0.02338014 -0.00894456 -0.0018920137 0.00017161155 0.0043803533 0.01752943 0.020607665
0.004093802 0.008151717 0.0014918384 0.012597034 0.023602605 0.009172739 -0.017955365 0.028652757
0.030544037 0.01758365 -0.015658867 0.0074646897 0.00883564 -0.005657174 0.004923027 -0.020606274
0.0117550185 0.0024650586 0.009733038 0.01754834 0.00892249 0.005995326 0.02220429 -0.020009711
0.004084596 0.016378412 0.016416272 -0.008086934 0.0024756722 -0.005181924 0.017527148 -0.0063245757
-0.004583892 -0.007232388 0.0036080596 -0.006618662 0.032148074 0.004227581 0.0016083436 -0.012242714
-0.0032888765 -0.004660194 0.002080368 0.021553218 -0.002343079 0.0014308955 -0.00031718198 -0.0129881175
-0.010840999 0.015239992 0.010280369 0.017633112 -0.003324442 -0.00038581615 0.0017759426 0.0055988804
-0.0024837973 0.03214003 -0.0030222074 -0.0043128165 0.009063859 0.021482525 0.00046860497 0.021105442
0.007749704 -0.0013060325 0.0072515737 -0.01081495 -0.017429303 0.015290775 -0.006717837 0.020055149
0.021751886 0.0041360008 0.002483546 0.022051213 0.018985847 -0.014147234 -0.029328547 -0.0053249975
-0.0118172355 0.03300108 0.0021405779 0.010985679 -0.0119553795 -0.021672642 -0.0092525575 0.012964442
-0.0022945702 0.0271262 0.022873279 0.030247359 0.009656247 0.007572431 0.0031217532 -0.00429731
-0.014301028 0.013143217 -0.000164419 0.018226232 0.027072975 -0.01209981 0.00715744 0.004523085
0.02620944 0.013062635 0.019183522 0.0016248539 0.0017740659 0.022438774 -0.011886429 -0.010164894

Linear2.weight f4 [128, 128]
00000000: 9bf0 073c a8b6 b0bd f55d 60bd 382c 573d
00000010: 4b10 2d3d d2b0 463c 00cf 0f3d 732c a8bd
00000020: c850 5c3d ae3b 963d 742d adbd 8186 9abd
00000030: e170 04bd 1b1e 1e3c cfb3 40bd f161 1a3d
00000040: f73f 343c 44d5 21bc 74f3 02bd fd64 76bb
00000050: c185 a03d 272c d63c c1aa e93b 3f6e a93d
00000060: c105 a33d 32ea 7b3c 79ed 9a3c 44ee b1bd
00000070: 200d 5dbc 69d6 e33c 71ca 233d e8db 8abd
00000080: ef84 6cbc d38e 8abd 037b 6a3d 063e 713d
00000090: 2dfb 2fbb 88a4 a0bc b7cc 28bd 5418 8cbc
000000a0: 9c5b d33b 9568 21bd 34c6 523d 04ee eebc
000000b0: 50b2 293d ebb9 2cbd c894 993d 83cb b33d
000000c0: 173e 9a3d fca8 96bd 4f4c db3c b5eb 093d
000000d0: 2478 7c3d 313f ac3c 3600 f9bc 6a16 d4bc
000000e0: e4ca 53bd 546c 77bd 583d df3c 5d96 b03d
000000f0: c320 85bd ce29 5f3d 6c57 4dbd df8f a1bd
00000100: 98d5 df3c 41f8 933d 450e de3c b76a 82bd
00000110: 23ed a0bd f8f5 c83c 8123 86bd 4fd3 19bd
00000120: 1033 543d 6496 463c dd4a 4c3d e590 1cbd
00000130: 7ab6 0ebd da5c 90bd 6a19 8fbd 465f 03ba
00000140: 8a9c 803d 56e3 b8bd c8df 4d3d c027 79bd
00000150: e47a 95bd 8ea4 f13c 2ae4 9bbd 7ac2 943c
00000160: dd94 acbd f34b 90bd 2e91 e6bc e482 8f3d
00000170: 8c17 883c bfd4 3a3d 40cf 403d a867 a6bc
00000180: f74c 1a3d 670e 3cbd b337 7c3d 6601 57bd
00000190: c2f4 8b3c 19e5 cf3c cd39 9f3d 5450 81bd
000001a0: 0bf4 da3c 3cef b1bc 1e1b 8e3d f5d0 673d
000001b0: b437 ecbc 21bb 43bd 2d26 19bd 2201 c9bd
000001c0: 496d 953d 1e09 8c3d 9ef4 a93c c4d3 48bd
000001d0: 1f65 4b3d 5714 693d 73e9 66bd 07a4 e5bc
000001e0: f6bf 5bbd 58b9 443d 157b 133d a527 7c3d
000001f0: 93ad aa3d 0ae4 2dbb 1a5c 4d3b bb32 b53d
00000200: 27a6 733c 840f dabc da6a a3bd 4d05 07bd
00000210: 9252 8c3d c1b5 1dbd 68f2 a8bc 4982 a63d
00000220: 5ead 9dbb 5533 e7bc c11f 7cbd 97fe b03d
00000230: d12f adbd fa06 8c3d 7ce1 0abd caec 183d
00000240: 056a ad3c c7fa fdbc 8fbe a23d d4c3 2a3d
00000250: d2f2 a9bd 3103 b3bc 765d 903d e16c a5bd
00000260: 7970 98bd e626 12bd 6581 25bd 0494 ddbc
00000270: ba54 84bd 4544 3dbd 92a7 963d 1eca 68bd
00000280: f282 94bc afd5 85bd b48f fb3c 86ee ee3c
00000290: b743 423d d090 a33d 3400 6b3c 73fa e7bb
000002a0: 5fc7 81bd 4cc1 2abc 493c a4bd 423a dd3c
000002b0: 655f ac3d 8e93 563d 2cb9 483d abfd b03d
000002c0: 3d0c d73c d753 5aba 4a3e cf3c 2b65 ffbc
000002d0: 8ee2 b63c 955f 8ebd 4422 0cbd fa69 b4bd
000002e0: 32c2 c93c ece9 a7bd 468a 72bd f1dc 43bd
000002f0: df64 adbd eac1 65bd 65a5 2f3d 9802 81bc
00000300: 1494 66bc e4c5 373d 336b de3c c456 50bc
00000310: 5431 623d 8f85 85bd 6299 1abd 6528 26bd
00000320: 006b a0bd c6ce f2bc 7844 28bd bde4 a23b
00000330: 47ef 7f3b 68ae 343d b9c0 963d 089a 6dbc
00000340: 8afb 663c 50ce 003d eed5 1cbd 90fc 89bd
00000350: ca07 a8bd cf36 d5bb d9de 9bbd c5cb 993c
00000360: 57db 713d f659 debc 1151 653c 22d8 a437
00000370: 0f9a 093d 2209 813d 78ec 963c 72a2 afba
00000380: 2766 533c ca5b acbd 9921 333d fa74 0abd
00000390: 45d4 b1bd 62a0 30bd f197 7ebd e67a a13c
000003a0: 534d fb3c d993 a4bd 161e 76bc b992 8b3c
000003b0: e035 133c f9f8 0abc 74fb afbb 11bd 303c
000003c0: ed2e a9bd 5825 8b3c 8000 65bd fce8 71bc
000003d0: 1069 11bd 8a66 16bc d80b 873c 7a7b 09bd
000003e0: 89bd 123c 5505 ab3c 8259 85bd 4aeb 8cbd
000003f0: 2aaa 953d 1b53 96bd b91a 96bd 30ed a03c
0.008297111 -0.08628589 -0.054777104 0.052532405 0.042251866 0.012127118 0.03510952 -0.08211603
0.053787977 0.07335602 -0.08455935 -0.07545186 -0.032334212 0.009650732 -0.04704648 0.03769106
0.0110015785 -0.009877507 -0.031970456 -0.0037596815 0.078380115 0.0261441 0.007130951 0.08272981
0.07960082 0.015375661 0.018912064 -0.08688024 -0.013491899 0.0278122 0.039987985 -0.06780225
-0.014435991 -0.06765523 0.05724622 0.05889704 -0.0026852593 -0.019609705 -0.041210856 -0.017101444
0.0064501297 -0.039406378 0.051458552 -0.02916623 0.041429818 -0.042169493 0.07499081 0.08779051
0.07531374 -0.0735645 0.026769785 0.033672053 0.061638013 0.021026226 -0.030395608 -0.025889594
-0.051707163 -0.060406044 0.02725093 0.086224295 -0.065003894 0.054483227 -0.0501322 -0.07888769
0.02732353 0.07225085 0.027106414 -0.063680105 -0.0785773 0.02453135 -0.065497406 -0.037555035
0.05180651 0.012120817 0.049876083 -0.03822412 -0.034841992 -0.0704896 -0.06987269 -0.000501145
0.062798575 -0.09027736 0.050262243 -0.060828924 -0.0729883 0.029497411 -0.07611878 0.01815914
-0.08426831 -0.07045736 -0.028145399 0.07007387 0.01661279 0.045613047 0.04707265 -0.020313099
0.037671056 -0.045912173 0.061576556 -0.052491568 0.017084483 0.025377797 0.077746965 -0.063141495
0.026727697 -0.021720521 0.06938766 0.05659576 -0.028835155 -0.047785882 -0.037389923 -0.09814669
0.07296235 0.068376765 0.020746525 -0.04903008 0.049656983 0.056904163 -0.05637498 -0.028032316
-0.053649865 0.04802832 0.036006052 0.061561245 0.08333888 -0.0026533627 0.0031335414 0.08847567
0.014871157 -0.026618727 -0.07979365 -0.03296404 0.068516865 -0.038503412 -0.0206234 0.08130319
-0.0048119267 -0.02822272 -0.06155372 0.08642309 -0.08456386 0.06837268 -0.033906445 0.037335195
0.021168718 -0.031003369 0.079465024 0.041690663 -0.082982674 -0.021852108 0.07049076 -0.08077408
-0.074433275 -0.035681628 -0.040406603 -0.027048118 -0.06461473 -0.046207685 0.0735618 -0.05683338
-0.018128846 -0.065348975 0.030708171 0.029166471 0.04742786 0.07986605 0.01434331 -0.0070794164
-0.06336855 -0.010422062 -0.08019311 0.027005319 0.084166326 0.052386813 0.04900472 0.08642133
0.026250953 -0.0008328533 0.025298256 -0.03117617 0.022324827 -0.069518246 -0.034212366 -0.08809276
0.024628732 -0.08198914 -0.0592139 -0.047818128 -0.08466505 -0.056093134 0.042882342 -0.015748307
-0.0140733905 0.044866458 0.027150726 -0.012715999 0.055222824 -0.06519615 -0.037743933 -0.040565867
-0.07832909 -0.029639613 -0.041080922 0.0049711154 0.0039052533 0.04411164 0.07360978 -0.014502056
0.0140980575 0.031446755 -0.038289957 -0.067376256 -0.08204611 -0.006506778 -0.07610864 0.018773923
0.05904707 -0.027142506 0.0139963785 1.9650968e-05 0.033594187 0.0630057 0.018423304 -0.0013399853
0.012902773 -0.08415945 0.043733213 -0.033802964 -0.08683065 -0.043121703 -0.06215662 0.019711923
0.03067652 -0.08036012 -0.0150218215 0.017037736 0.008985013 -0.008482211 -0.0053705517 0.010787264
-0.082609035 0.01698558 -0.05590868 -0.01476502 -0.035500586 -0.009179721 0.01648514 -0.033565022
0.0089563215 0.020876566 -0.06511213 -0.06880815 0.07307847 -0.0734007 -0.07329316 0.01964435

Linear2.bias f4 [128]
00000000: 391c 553d 93cb 85bd c769 9cbd 5379 8c3d
00000010: 54c7 99bd bcd6 53bd f0f6 25bc a568 fc3c
00000020: 14a0 50bd 12ff 59bc 6f7f 953d fab3 463d
00000030: 25b9 033c 9ad1 a2bc 620c 8c3d 3a3c 3e3b
00000040: 7ed8 3cbd 93a1 b8bb 9562 fb3c 44a1 ddbc
00000050: 69d8 913c b67f a7bd e08a 703d e0a4 10bc
00000060: 8bf4 5b3d 9aae b23d 6911 e6bc 2fd6 513d
00000070: 069b 5a3d 2c5b 8bbd 2d7c a03d bc63 71bd
00000080: a5cb 023d 7e0a 1fbd 811f 0d3c d134 043d
00000090: 32ff 92bd 5a09 73bd 76c3 a83d 2486 9c3d
000000a0: fbc9 a4bd ffab 943c 077c a6bd a1fd 273d
000000b0: 22fc 64bc 3a75 013d a5af 46bd fff4 923c
000000c0: f2ab 43bd 1f9c 6fbd a14f a6bd 2937 a23d
000000d0: a2c5 9dbc bf43 87bd e87a 2f3d ffad a8bc
000000e0: 9628 edbc b292 233c d82f 28bd 3cbc 2ebd
000000f0: a75b 803d 0eec a5bd 56b9 5abd 68f4 a1bd
00000100: 17ef 00bd 88cd 0ebd d040 17bd ef27 793d
00000110: c099 bc3d a49e 5a3d 22cb 98bc 14f0 a83c
00000120: 3dde b73d c9ff a9bd 7bc0 b0bd 5417 b53b
00000130: fb0e a73d 5776 afbd 1779 9dbd bc67 773d
00000140: 278d a63d 7fcc 883d bf01 a5bd efa2 ed3c
00000150: bf81 8d3d e315 05bd 15ea 803d b1d6 0a3d
00000160: e63f 053d 8f23 4fbd 5208 f7bc 4cb8 a2bd
00000170: 401d c63d 8288 433d ddff 80bd 8d7c 9d3d
00000180: 9bf7 cfbc ced7 a23d 9edd 8f3d 805c 203d
00000190: c14c b43d f0d8 eabc a6d2 e3bc 1e45 01bd
000001a0: 28d3 c2bc 2a90 e53b f1da 22bd 643c debc
000001b0: 3799 9abd ec8d 663d b8af 3cbc 790a 9ebd
000001c0: 987f 9f3d 1894 67bd 7a65 76bd 7d57 903c
000001d0: 5dbb 78bd 6321 b1bd a43a 29bb 8614 7ebb
000001e0: dfa8 c43d b5a8 aa3d 2d9d 603d 43e8 48bd
000001f0: 52f0 373c d769 763d 959b 943d ea2e 56bd
0.05202887 -0.06532969 -0.07637363 0.06859078 -0.07508722 -0.05171846 -0.010129675 0.030811617
-0.050933912 -0.013305442 0.07299697 0.048511483 0.008039747 -0.019875336 0.06838299 0.0029027597
-0.0461049 -0.0056344955 0.030686656 -0.027054437 0.017803388 -0.08178656 0.05872619 -0.008828372
0.05370001 0.08724709 -0.028084474 0.051229652 0.053370498 -0.06804499 0.07836185 -0.058933005
0.03193249 -0.038828366 0.008613468 0.032276932 -0.07177581 -0.05933509 0.08240406 0.07642773
-0.08046337 0.01814842 -0.08129125 0.041013364 -0.013976129 0.031605937 -0.04850735 0.017939089
-0.0477714 -0.058498498 -0.08120657 0.07920677 -0.019259278 -0.066047184 0.042841822 -0.02059078
-0.028950017 0.009983705 -0.041061252 -0.042659983 0.06267481 -0.081016645 -0.053399406 -0.07907945
-0.031478014 -0.03486398 -0.036927044 0.0608291 0.09209013 0.053373948 -0.018651549 0.02062229
0.089779355 -0.0830074 -0.08630463 0.0055264626 0.08157154 -0.085674934 -0.07689112 0.060401663
0.081323914 0.066796295 -0.08056974 0.029008357 0.06909513 -0.032491576 0.062946476 0.033896152
0.03253164 -0.05057102 -0.030155335 -0.07945308 0.09673548 0.047737606 -0.06298802 0.07689772
-0.025386622 0.07951318 0.07024692 0.039150715 0.08803702 -0.028667897 -0.027810406 -0.031560056
-0.023782328 0.007005711 -0.03975958 -0.027128406 -0.07548755 0.05628769 -0.011516504 -0.07716841
0.077880085 -0.056537718 -0.06015537 0.017619843 -0.06072556 -0.08648946 -0.0025822306 -0.0038769557
0.09602522 0.083329596 0.054837395 -0.049049627 0.01122673 0.06015953 0.072562374 -0.052290834

Linear3.weight f4 [128, 128]
00000000: 890c 253d a64f a23d 8906 47bd 290f 43bd
00000010: 903b 0fbd f348 fbbb f14b 23bd 6e2a 0a3d
00000020: 43bf 76bb 6533 e43a 6357 e03c 371b 2abd
00000030: c3e5 f5bc a20a 843d 8905 073d 5048 92bd
00000040: 0802 9ebd b325 43bd a090 db3a c868 e83c
00000050: a9a6 9f3c 8def a8bd 5bf9 76bd 3c23 8cbd
00000060: aded 503d 26a5 4dbd 856b 62bd 2058 aebd
00000070: 986a a93c 3073 81bd 7f6d 623d edef 343d
00000080: 9999 203d a0d8 2d3d 2d33 df3c 08f9 03bc
00000090: 0471 813d 656b 63bd fe91 87bc e4c9 b4bd
000000a0: 4525 043c 6a6a 713d 92db 15bd f503 d23c
000000b0: 5f5f 613d c24e 6fbd b0f5 c83c 7af8 4dbd
000000c0: b935 c1bc 4af9 e53c 7f2b 1ebc 91dc b23d
000000d0: 74f9 b9bc 3068 a4bd 945c 90bd e90e 643d
000000e0: 5187 b4bd 370b 953d 5199 68bd 5a8a 43bd
000000f0: 9397 a03d f7de b0bc 0cbb a6bd a18e d43c
00000100: d2c0 a4bc 9dc9 8bbc 033b d03c 9da5 8d3d
00000110: ea5d e7bc 94af 213d ea24 e93c 0d16 833d
00000120: 4636 84bd 9457 2f3d 0384 1b3c 4342 dc3c
00000130: 8a92 97bd 0da8 113d c50f 043d 75b4 633d
00000140: a3da 53bd e727 79bc d14a 273d ffb9 343b
00000150: d7fc 21bd 3c40 573d 23b9 3abd ffc3 21bd
00000160: 41ca 85bd 71ab 173d acbf 19bd ddf7 4e3c
00000170: 3306 04bc 9b85 6abd b5e7 46bd 3cd1 9c3c
00000180: 3ad4 81bb a312 593d 273e 733d 6597 b8bc
00000190: 4f51 58bd d60f 973d 5e44 6ebd 5342 11bd
000001a0: 4aca 65bc 1ba8 303d c2d4 f33c 8a23 ff3c
000001b0: 69a2 d73c f96e 3dbb 0dc3 b0bd c950 97bd
000001c0: 3292 d2bb 94c7 3e3d 0ccb 4f3d 03de 893d
000001d0: 6ff9 7a3d d7ca 61bd 6c13 8ebd 42dd 2fbd
000001e0: f086 543d b489 4fbd c1dc ef3c e1e6 0b3d
000001f0: 2e91 98bd 83d1 7b3c 1df3 a8bc 734d 70bd
00000200: a53f ff3c e73c a83d 1316 fdbc 05b7 1b3d
00000210: 082b 983d 03f5 073d f152 83bd c950 08bd
00000220: fc51 a13d b2b1 ba3d 25c6 ff3c 2a19 35bd
00000230: 9c29 af3d f4c2 9bbd 3e48 ae3c 0d61 273d
00000240: ec3d 00bd 6f52 fdbc 3f86 783d 4c09 37bd
00000250: c78e a73d 8dfa c33b 1b28 3dbd 4859 e6bc
00000260: d4a1 5c3d 0a93 193c 6ea6 a7bc 6ef7 aabd
00000270: 619e a33d cebf 0a3c 14b5 9abd 8bb2 74bd
00000280: e353 09bd 9d31 b7bc 5b08 813d a7c7 80bd
00000290: be56 b23d 3ed4 703c bfa6 2e3d 3d5e 36bc
000002a0: 665e 133c ddc9 acbd d4c0 a83d 8a18 2b3d
000002b0: 401a 773d 92ed aebc f36f c0b9 a3a8 a93d
000002c0: 77a9 883d dc82 35bc 188a 203d 342d 1f3d
000002d0: e09a 2f3d 6176 6d3d 8966 a03d 1537 8a3d
000002e0: 8923 b63d 511c 4bbd efdd a2bc d261 a83d
000002f0: 52b0 1c3d 755e aebc 1ee3 593d ecf5 b43c
00000300: 29ee 54ba 35e7 b23c 0418 873d bcb3 8ebb
00000310: 11bf 9c3c 0df9 9b3c 0942 1f3c a901 fa3c
00000320: ab04 903d eda4 08bc 1fd5 cfbc 1092 acbc
00000330: 9231 db3c 5770 6cbc 0c32 823d c6c5 2dbd
00000340: 1733 853c e0d7 443d cedf bcbc a478 3abd
00000350: 7be7 e4bc 2d6a 6abd f4e6 b23d 23d8 a03d
00000360: 2375 12bb 13ee 78bd 3eba f03b f5c9 f23c
00000370: 6619 b23d 8197 2d3d cf01 2dbd 04ff 77bd
00000380: d54c 0fbd e918 55bd ee44 a4bd 84d9 8c3b
00000390: cc67 8bbd ef03 303d 439d b03d e473 7f3d
000003a0: cf5f 7d3c ddf7 a83b 659d 283d 5b22 ea3c
000003b0: 2200 923d 511a 633d 4f2a 8ebd a33e 673d
000003c0: 187a 543d 98b9 133d 5399 af3d 0063 89bb
000003d0: 69f6 253c a27d 4abd 1ae0 adbd a78e ae3d
000003e0: 0536 ca3c af7a 5d3c 0f46 8dbd 0cf2 523d
000003f0: 4963 b53d 1241 633d 3886 933d e33f 9b3d
0.040295158 0.07925348 -0.048590217 -0.04762188 -0.034968913 -0.0076686083 -0.039867345 0.03373187
-0.0037650622 0.0017410336 0.02738542 -0.04152986 -0.030016785 0.064473405 0.032964263 -0.07142699
-0.07715231 -0.047643375 0.0016751476 0.028370276 0.01948865 -0.08248816 -0.060296398 -0.06842658
0.051007915 -0.050206326 -0.05527832 -0.08512902 0.02068071 -0.063207984 0.055280205 0.044174124
0.039208982 0.042442918 0.027246082 -0.008054979 0.06320384 -0.05552234 -0.016549107 -0.0882757
0.008065526 0.058939375 -0.03658635 0.025636652 0.055022594 -0.05842472 0.024531215 -0.050285794
-0.023585187 0.028072972 -0.009653925 0.08733476 -0.022701956 -0.08027685 -0.07048908 0.055678282
-0.08814872 0.0727753 -0.05678684 -0.047739364 0.078414105 -0.021590693 -0.08141145 0.025946917
-0.020111475 -0.01706391 0.025418764 0.06916354 -0.028243024 0.039474085 0.028459985 0.0640069
-0.06455664 0.04280813 0.009491923 0.026887065 -0.07400997 0.035560656 0.0322416 0.05559202
-0.05172218 -0.015207267 0.040842835 0.0027576683 -0.039547767 0.052551493 -0.045586716 -0.039493557
-0.065327175 0.037028734 -0.03753631 0.012632337 -0.008058119 -0.057256322 -0.048560817 0.01914274
-0.003962067 0.05299629 0.059385445 -0.022533128 -0.052811917 0.07376067 -0.05817067 -0.035463642
-0.01402528 0.043129068 0.029764537 0.031144876 0.02632256 -0.0028905256 -0.08630953 -0.073884554
-0.0064261192 0.04657705 0.05073075 0.067317985 0.061273035 -0.055125084 -0.06937298 -0.042935617
0.0518865 -0.050668433 0.029280068 0.03415573 -0.07449566 0.015369776 -0.020623738 -0.05866761
0.031158278 0.08214741 -0.030894315 0.038016338 0.074300826 0.033192646 -0.06412304 -0.033280168
0.078769654 0.09115924 0.031222412 -0.04421345 0.08552858 -0.07605544 0.021274682 0.04086404
-0.031309053 -0.030923096 0.060674902 -0.0446866 0.081815295 0.0059807957 -0.046180826 -0.028118744
0.05386527 0.009373436 -0.020465102 -0.08347975 0.07989193 0.008468581 -0.07554069 -0.059740584
-0.033527266 -0.022362525 0.06300422 -0.06288081 0.08707951 0.01469904 0.04263949 -0.011130867
0.008994674 -0.0843694 0.08239904 0.04177145 0.06032777 -0.021353517 -0.00036704502 0.08284118
0.06672948 -0.011078563 0.039194196 0.03886147 0.04287231 0.057974223 0.07832057 0.06748787
0.088934965 -0.04958755 -0.019881217 0.08221783 0.03825409 -0.021285275 0.05319511 0.022089921
-0.0008122647 0.021838764 0.065963775 -0.004354922 0.019134076 0.019039655 0.009720334 0.03051837
0.0703214 -0.008340103 -0.025370179 -0.021065742 0.026757035 -0.014431081 0.06357202 -0.04242494
0.016259713 0.048057437 -0.023055937 -0.045525208 -0.02794241 -0.057230163 0.08735457 0.07853725
-0.002234765 -0.06077392 0.0073464205 0.029637316 0.086962506 0.042380814 -0.042238053 -0.060545936
-0.034985382 -0.05202571 -0.0802096 0.004298391 -0.06806907 0.0429725 0.08623745 0.06236638
0.015464737 0.0051565007 0.041165728 0.028580835 0.071289316 0.05544502 -0.069416635 0.05645622
0.05187425 0.036065668 0.08574166 -0.00419271 0.01012955 -0.04943622 -0.084900096 0.085233025
0.024683962 0.01351802 -0.06898128 0.051500365 0.08856828 0.055481978 0.072033346 0.07580545

Linear3.bias f4 [128]
00000000: ad51 9ebd dc2d 33bd adf6 d3bb ae2d 6b3d
00000010: fcaf 963d 7c38 093d 49e1 dfbb ac39 733d
00000020: 1dbe 923b 70f0 55bb 15b5 07bd 69b2 793d
00000030: 7cb1 35bd fa8c 88bd 09ee 4abd 433b 003d
00000040: 3a3f eabc 8ac6 e1bc a60b 4e3d 8ed3 903d
00000050: 7201 6a3c 640f cfbb f27d 4f3c 6d5f 2fbd
00000060: c69a 143d e6c5 c03c ea44 85bd 7477 72bc
00000070: e3e1 ccbc 7677 07bd b986 0a3d 9766 bc3d
00000080: 777a 71bd 2e06 253d 1501 76bd 822c 603d
00000090: 131c 543d 5b29 003d 80eb 6e3b 0f85 63bd
000000a0: 822f 46bd be3e 4f3c 6c55 543d ec8b 57bd
000000b0: ae2e 76bd 8348 aa3d 9fed 4e3d 04e7 00bd
000000c0: 6750 acbd 18e0 12bb 1943 95bc b8a7 05bc
000000d0: d654 543d 93b6 1ebd dbd8 113d 116d 49bd
000000e0: f467 55bd 1d9d 3dbd 8054 98bd e4e0 253c
000000f0: 0a2c a8bc 9f21 a73d 9f96 a43d c33e b3bd
00000100: d5d4 ca3c 4998 bf3c 2591 313d e936 b83d
00000110: 1b93 79bd 1f3a 53bd b26d 7d3d 557f 66bc
00000120: d32e 96bd 8240 bb3d 314b a83c a823 a03c
00000130: bd6e 67bd d90e b4bd 0b95 863c 3c45 cdbc
00000140: 1404 a6bd 0e15 0f3d 924a bf3c 8c3f 9f3d
00000150: 092b 7cbd 5a33 85bd de57 a03d 3dd0 a4bd
00000160: bab6 373d 063a 2dbd e260 893d 6d00 29bb
00000170: bcc0 893d d89c 643b 9d19 dfbc a6a3 9c3d
00000180: d2d3 b3bd bfd9 093c e83f abbd 15c9 853d
00000190: ad9f 3a3d 695d 123d 1607 85bd 3dfb 0ebc
000001a0: c209 ed3c caad 7bbc 7857 163b 2034 14bd
000001b0: ec2d 5a3d a8ce f13b b332 673d 20ae 3938
000001c0: 40de 353b 7ff5 91bd cb42 adbd e398 96bd
000001d0: 8116 833d 8d52 acbd fa2d 3b3c 2d03 9b3c
000001e0: c6f4 0abd b777 99bd b702 a73d d311 6bbd
000001f0: 6fde 83bd 6f4a d33c cc30 11bc 281f 92bd
-0.07730422 -0.043744907 -0.006468615 0.05741661 0.07357785 0.033501133 -0.006832276 0.059381172
0.0044782297 -0.0032644533 -0.033131678 0.06096116 -0.044358715 -0.06667514 -0.049543414 0.031306516
-0.028594602 -0.027560491 0.050304078 0.07071601 0.014282571 -0.0063189734 0.012664305 -0.042815614
0.036280416 0.023531865 -0.06507285 -0.014798988 -0.025010055 -0.03307291 0.033819888 0.09199255
-0.058954682 0.040289097 -0.060059626 0.054729946 0.051784586 0.03128944 0.0036456287 -0.055546816
-0.04838515 0.012649236 0.051839277 -0.052623674 -0.06010311 0.08314612 0.050519582 -0.031470314
-0.08413773 -0.0022411402 -0.018220471 -0.008157663 0.05183872 -0.038748335 0.0356072 -0.04917628
-0.05210109 -0.046292413 -0.07437992 0.010124419 -0.020528812 0.081607096 0.08036541 -0.08752205
0.02475969 0.023388045 0.04335131 0.08994848 -0.060931306 -0.0515691 0.06187219 -0.014068444
-0.0733315 0.09143163 0.020543667 0.019548252 -0.056502093 -0.087918945 0.016428491 -0.025057428
-0.081062466 0.03493219 0.023350988 0.077757925 -0.06156448 -0.06503935 0.07829259 -0.08047531
0.044851996 -0.042291664 0.06707932 -0.0025787607 0.06726214 0.0034883525 -0.027233893 0.07648401
-0.08780636 0.008413731 -0.083617985 0.06532494 0.045562435 0.035733614 -0.06495492 -0.008726892
0.028935317 -0.015361259 0.002294032 -0.036182523 0.05326645 0.0073793717 0.056444835 4.4269604e-05
0.002775088 -0.07126903 -0.084600054 -0.073533796 0.06400777 -0.08414183 0.011424536 0.018922413
-0.03392484 -0.07493537 0.08154815 -0.057390045 -0.0643891 0.025792329 -0.008861732 -0.07134849

Linear4.weight f4 [1, 128]
00000000: dfe5 d3bc 7c2f 03bd fd1f 93bc 58fa 943d
00000010: 3d4d 5d3d 835c 9dbd 971c b6bc c021 333d
00000020: 9475 9bbd e765 673c 3147 e4ba 6edb b43d
00000030: 5856 b23d 174e 593d ef57 2dbb 378f 80bd
00000040: 8d5c 80bd 9330 12bc 0b7c 523c 5890 7dbd
00000050: 412c 1cbd 7712 a3bd 3f22 72bd 9e8c 2c3d
00000060: 0fbe 7e3c deb8 833c f288 203d c019 a83d
00000070: b852 9e3c aa11 44bd 0247 b6bd ae0c 353c
00000080: 6c26 403d 4dac 8dbd 461c f6bb ec4d b73d
00000090: 9cdd 223c 18fd ff3a c42c 8abd c144 a2bc
000000a0: 474b 153d 4e39 9a3d 1eb4 973d 4d00 973d
000000b0: d8cd 9dbd 7853 303c 61f1 863d 46bb 8b3c
000000c0: 3a38 20bd b3bf a0bd 0753 b13d 1a9e 96bd
000000d0: cdba b2bd d7db f5bc 4dfd d43c e50c 48bd
000000e0: b500 9cbc d5d5 a23d 85b4 7bba 3a14 933c
000000f0: 6b76 22bd 0554 243d f58e 873d 869a 68bd
00000100: 87f7 b7bc 5c55 293c 50f2 59bd b69f 873c
00000110: 1aa0 88bd 1145 98bd 4bae 803d 7d62 b9bd
00000120: 3e59 28bd f6d6 a73d 42cc 413d 5fe6 0b3c
00000130: 6ebd d23a 5cad 6cbd d87c 1bbb 7b30 cebc
00000140: 1833 a1bd 8c26 5ebd eda8 a9bc dd45 7f3d
00000150: e95a 15bd d137 20bc 4f6a 9b3d 80be 783a
00000160: 42b6 d7bb a310 703d ed1e 473d f3b1 bebd
00000170: 846e b33c 20ad a3bd 4d9b aabd a2f4 50bd
00000180: b82c 94bc 6ef9 833c 825d 04bd d191 153d
00000190: e1d5 02bc 37a2 58bd 5e07 95bd 05aa b43b
000001a0: 2719 73bc 6887 bdbc 825d 66bd 2666 a5bc
000001b0: 76f3 5ebd 8dcb 46bd b673 4e3d e208 99bc
000001c0: 081a 2f3b eaba 81bd f431 dc3c 9bf4 543c
000001d0: aed8 9b3b 398e b4bc d28c 30bd a3a6 223d
000001e0: c2da 09bd 454a 7dbd 1149 833b 182d 5abd
000001f0: e5be b4bd 03a7 14bd f4da 4c3d 4767 c23c
-0.025866447 -0.032027707 -0.01795959 0.07274312 0.05402874 -0.07683661 -0.02223043 0.04373336
-0.075907856 0.0141234165 -0.0017416236 0.088309154 0.08707875 0.053052988 -0.0026450118 -0.06277316
-0.06267653 -0.008922714 0.012846957 -0.061905235 -0.03812814 -0.07962506 -0.05911469 0.04212629
0.015548243 0.016079362 0.0391931 0.082080364 0.019326553 -0.04786841 -0.089002624 0.011050386
0.046911642 -0.069176294 -0.0075106947 0.08950409 0.009940531 0.0019530384 -0.067468196 -0.019808175
0.036448743 0.07530461 0.074074015 0.07373104 -0.07705277 0.010762088 0.06589008 0.017057072
-0.03911612 -0.07849064 0.08658414 -0.07354374 -0.08727036 -0.030012054 0.02599969 -0.048840422
-0.019043306 0.079509415 -0.00096017896 0.01795398 -0.039663713 0.04011919 0.06619064 -0.05678799
-0.022456897 0.010335293 -0.053209603 0.016555648 -0.06671162 -0.07435048 0.06283244 -0.09051988
-0.041100733 0.081952974 0.047313936 0.0085388115 0.0016078183 -0.057782516 -0.0023725536 -0.025169602
-0.078710735 -0.05423598 -0.020710433 0.062322486 -0.03646365 -0.009778933 0.07588636 0.0009488836
-0.006583006 0.058609616 0.048613477 -0.09311285 0.021903284 -0.07992005 -0.083304025 -0.05101455
-0.01808773 0.016110148 -0.03231574 0.036516014 -0.007985563 -0.052889075 -0.07276796 0.005513432
-0.01483754 -0.023135856 -0.05624152 -0.02019031 -0.0544314 -0.048533965 0.05040332 -0.018680993
0.0026718397 -0.06334479 0.026879288 0.012997772 0.004756055 -0.022040473 -0.043103047 0.0397097
-0.03365589 -0.061838407 0.004006513 -0.05326566 -0.08825473 -0.036292087 0.050013497 0.023730887
