database/Neural_Salary_Model.pth (torch, 990480 bytes, 7 tensors)

Linear1.weight f4 [128, 1668]
0	0xbe3a05fd	-0.18166347
1	0xbd217c0e	-0.03942495
2	0x3de26366	0.11054115
3	0xbd51aef4	-0.05119224
4	0xbd4f1ddc	-0.050565585
5	0xbe1eef29	-0.1552092
6	0xbcd77e22	-0.026305262
7	0xbd1c9809	-0.03823093
8	0xb98cfca6	-0.0002689112
9	0xbd5e3c68	-0.054256827
10	0xbd51af44	-0.051192537
11	0xbb57e655	-0.0032943685
12	0x3d4278d9	0.04747853
13	0xbda25422	-0.07926203
14	0xbd094dd7	-0.0335215
15	0x3d23d29e	0.039995782
16	0xbd251abd	-0.040308703
17	0xbcd695df	-0.026194511
18	0xbc3f71fa	-0.011684889
19	0x3d26bb8b	0.0407062
20	0x3ca7ce8d	0.020484233
21	0x3d19638e	0.03744846
22	0xbd758b81	-0.059947494
23	0x3cc247ec	0.023715936
24	0xbd4eb7e4	-0.05046834
25	0x3d68ea52	0.05686409
26	0xbbba8637	-0.005692269
27	0xbd1356c0	-0.035971403
28	0xbba5d3fe	-0.005060672
29	0x3d814a9b	0.06313058
30	0xbd147037	-0.03623983
31	0xbd24209c	-0.04007016
32	0xbd25139d	-0.040301908
33	0x3cb45657	0.022013826
34	0x3c9fbb14	0.019498385
35	0xbbb2cdcc	-0.005456662
36	0xbce63fc1	-0.028106572
37	0xbd4d4794	-0.05011709
38	0xbc4a412e	-0.012344642
39	0xbd1e118b	-0.03859095
40	0x3d0948b8	0.033516616
41	0xbd447962	-0.047967322
42	0xbd2c8c0d	-0.04212575
43	0x3cef2796	0.02919368
44	0xbd09e702	-0.03366757
45	0x3d645080	0.055740833
46	0xbd4891d7	-0.04896721
47	0x3ba9bed5	0.0051802197
48	0x3da94e90	0.08266938
49	0x3d377379	0.044787858
50	0xbd392de5	-0.045209784
51	0xbcd10371	-0.025514336
52	0xbd72ee5e	-0.059309356
53	0xbcb7fa64	-0.022458263
54	0x3ccd0a73	0.025029397
55	0xbdadaa23	-0.08479717
56	0xbd7450fb	-0.05964754
57	0xbd5a1e15	-0.053251345
58	0x3d6e234e	0.058139138
59	0xbd1d4c54	-0.03840287
60	0xbd825ea8	-0.063657105
61	0xbc7a02b5	-0.0152594345
62	0xbe470470	-0.19435287
63	0x3d62b822	0.055351384
64	0x3d10eed7	0.035384025
65	0x3cd9a68d	0.026568675
66	0x3d0c81b3	0.03430338
67	0xbd0df9a8	-0.03466192
68	0x3cbe2e9f	0.02321559
69	0x3deaa2ba	0.11456819
70	0x3cdc633a	0.026902784
71	0x3d2d35ce	0.04228764
72	0xbd381f3b	-0.04495166
73	0xbd2067a5	-0.039161343
74	0xbcf98fa3	-0.030464
75	0xbc46755e	-0.012112943
76	0x3cb1f57f	0.021723507
77	0x3c7e036c	0.0155037455
78	0x3c6a1567	0.014287329
79	0xbb22f623	-0.0024865947
80	0x3af3093b	0.001854218
81	0x3d1dcd1b	0.038525682
82	0xbcd022e8	-0.02540727
83	0x3cea2830	0.028583616
84	0xbc86345b	-0.016382387
85	0xbcacd48f	-0.02109745
86	0x3b70c04d	0.0036735714
87	0xbcfc3bba	-0.030790199
88	0x3cae8ba8	0.021306828
89	0xbdef2279	-0.11676497
90	0xbd65f8ed	-0.056145597
91	0xbc81ebe7	-0.015859557
92	0x3cd34c27	0.025793148
93	0xbc06116b	-0.008182864
94	0x3dd58547	0.10425811
95	0xbcc9e130	-0.02464351
96	0xbd470691	-0.048590247
97	0xbd6852f5	-0.05671974
98	0x3c72d665	0.014821623
99	0xbb99c5a6	-0.004692751
100	0xbd57706c	-0.05259745
101	0x3c13a3f7	0.00901126
102	0x3ccb5fd0	0.02482596
103	0x3c21cddb	0.00987574
104	0x3d015477	0.031574693
105	0xbcbeb6cb	-0.023280522
106	0x3b7c9eb2	0.0038546738
107	0xbd0bbaea	-0.034113802
108	0xbe0044dc	-0.12526268
109	0xbbff955e	-0.0077997884
110	0x3c3e5b02	0.011618378
111	0xbc524298	-0.01283326
112	0x3c8a4ffc	0.016883843
113	0x3d5e74bd	0.05431055
114	0xbd6b09c5	-0.057382364
115	0x3c98008f	0.018554954
116	0xbda98dbe	-0.08278988
117	0x3cf871b2	0.030327652
118	0xbc49c5c6	-0.012315219
119	0x3ba9b0d8	0.005178552
120	0xbd66b8fe	-0.056328766
121	0x3d3ffeba	0.046873786
122	0x3cc11159	0.023567842
123	0x3c29bfc1	0.010360659
124	0xbd855faf	-0.06512391
125	0x3a4f166d	0.0007899765
126	0x3d178e7a	0.03700111
127	0xbd339c11	-0.04385001
128	0x3b53c9fa	0.0032316432
129	0x3ca6fb8e	0.020383622
130	0x3d38a711	0.045081202
131	0x3d21b62d	0.039480377
132	0xbb122823	-0.0022301755
133	0xbd762e1b	-0.060102563
134	0x3c6fd48a	0.014638076
135	0x3ad48f05	0.001621694
136	0x3c443118	0.0119745955
137	0xbe08ea5b	-0.1337065
138	0xbcac198c	-0.021008275
139	0x3d1ed627	0.03877845
140	0xbd45b2f4	-0.048266366
141	0x3d9f9407	0.07791906
142	0xbd09763e	-0.03356003
143	0xbc817dab	-0.015806993
144	0xbd3d66e3	-0.0462407
145	0xbce96136	-0.028488737
146	0x3d23f313	0.040026736
147	0xbd692faa	-0.05693022
148	0x3cd01003	0.02539826
149	0xbd4b3f08	-0.04962066
150	0xbd623dde	-0.055234782
151	0x3d686733	0.056739043
152	0x3d311531	0.0432331
153	0x3bd418b4	0.0064726714
154	0xbcf1c122	-0.029511038
155	0x3d1e250a	0.038609542
156	0x3d36e5bb	0.04465268
157	0xbdb2f311	-0.087377675
158	0x3c6189fd	0.013765809
159	0xbcf1801c	-0.029480033
160	0xbcd5fb42	-0.026120786
161	0xbcaab53a	-0.020838369
162	0x3d1e9b99	0.03872261
163	0xbc13ac58	-0.009013258
164	0x3d8f75f4	0.0700492
165	0x3c46fa6c	0.012144666
166	0x3c082c65	0.008311366
167	0xbc2700e2	-0.010193082
168	0x3bbb11dd	0.0057089166
169	0x3c9e2189	0.0193031
170	0x3db7114a	0.089388445
171	0xbccfbe6c	-0.025359355
172	0x3d0c76a0	0.034292817
173	0x3ce96d29	0.028494434
174	0x3d6109a2	0.054940827
175	0xbd3a196e	-0.045434408
176	0x3cd38959	0.025822328
177	0xbd658332	-0.05603332
178	0x3d3c577c	0.04598187
179	0x3d54b11f	0.05192673
180	0x3c76c5ec	0.015061837
181	0x3c64e421	0.013970406
182	0xbd190f0a	-0.037367858
183	0xbcb33654	-0.021876492
184	0x3b68ca2f	0.0035520901
185	0xbc76758e	-0.015042676
186	0x3d17d9d2	0.037072964
187	0xbd0b457c	-0.034001812
188	0x3d1c7af1	0.038203184
189	0x3d3b2dfa	0.045698144
190	0x3cb74580	0.022372007
191	0x3ca89db1	0.020583006
192	0xbd869c99	-0.065728374
193	0x3d305b6d	0.04305594
194	0x3cb59af8	0.022168621
195	0xbcb171ba	-0.021660674
196	0xbcc4c8ba	-0.024021495
197	0xbc86e0cd	-0.016464615
198	0xbd6eb699	-0.058279607
199	0x3d7f0ab1	0.062266055
200	0x3d1b00fa	0.03784273
201	0xbd63394f	-0.055474576
202	0xbb71110a	-0.0036783838
203	0xbd51b07a	-0.05119369
204	0xbd59aeeb	-0.05314533
205	0xbd126c5c	-0.03574787
206	0xbc52a404	-0.012856487
207	0xbd5ad130	-0.053422153
208	0xbca3be4f	-0.019988207
209	0x3d649265	0.055803675
210	0x3d651508	0.05592826
211	0xbc04b30a	-0.008099327
212	0x3d03a1f5	0.032136876
213	0xb8ad70f2	-8.2703205e-05
214	0x3ce951c0	0.028481364
215	0x3da4cc92	0.08046831
216	0xbd447ce2	-0.04797066
217	0x384eb0b3	4.927879e-05
218	0xbd11a01b	-0.03555308
219	0xbd626102	-0.055268295
220	0x3d59f19e	0.05320894
221	0x3d05e016	0.032684408
222	0x3d08037d	0.03320645
223	0x3d2df260	0.042467475
224	0x3d39b835	0.04534169
225	0xbd41699b	-0.047219854
226	0xbe088f6c	-0.13335961
227	0x3d1beb5d	0.038066257
228	0x3ce5a7eb	0.028034171
229	0x3b0f61e6	0.002187842
230	0xbcb7c5d8	-0.022433206
231	0xbd4f91d4	-0.050676182
232	0x3cae5f66	0.021285724
233	0xbdf35a44	-0.11882451
234	0xbb36bb7a	-0.002788274
235	0x3cbaa673	0.022784447
236	0xbc8e6e03	-0.017386442
237	0x3cf49400	0.029855728
238	0xbc18512c	-0.009296697
239	0x3d44c08d	0.048035193
240	0xbd699b49	-0.057032857
241	0xb989406a	-0.00026178668
242	0xbd4eb8cd	-0.05046921
243	0xbd4ee568	-0.050511748
244	0xbd6caff6	-0.057784997
245	0xbd3c81cd	-0.046022225
246	0x3c23cccf	0.009997561
247	0x3dafa7b3	0.08576908
248	0x3ced1342	0.028939847
249	0xbab74fb3	-0.0013985544
250	0x3d3c1b6d	0.045924593
251	0xbd243b87	-0.040095832
252	0x3d1fc737	0.039008345
253	0x3d094825	0.033516068
254	0xbd345182	-0.044023044
255	0xbe43aa61	-0.19107963

Linear1.bias f4 [128]
0	0x3c0e3d51	0.008681611
1	0x3c51333d	0.012768564
2	0xbd23b87e	-0.039970867
3	0xbcace6c5	-0.021106133
4	0xbcb787a3	-0.022403544
5	0xbca59441	-0.020212295
6	0xbc01c6d9	-0.007920944
7	0xbc8228d3	-0.015888607
8	0x3be8b6a8	0.0071018524
9	0xbc1a52d4	-0.009419162
10	0x3cb01465	0.0214941
11	0xbd8b6492	-0.06806292
12	0x3c31e2d2	0.010857301
13	0xbd4e02bb	-0.050295573
14	0x3c8e9797	0.017406268
15	0x3d2afa91	0.041742865
16	0xbcae428b	-0.021271965
17	0xbc93bd97	-0.01803474
18	0x3cd5b469	0.026087003
19	0xbccaddb8	-0.024763927
20	0x3be665dc	0.0070311856
21	0xbc1432b1	-0.009045289
22	0xbc6a3e2d	-0.01429705
23	0x3c609d1d	0.013709334
24	0x3d0f14eb	0.03493206
25	0xbd493869	-0.049126063
26	0x3c0c2177	0.0085529005
27	0xbd4e5eff	-0.050383564
28	0x3bb5b00a	0.005544667
29	0x3c4475e4	0.011990998
30	0xbcb8d6ea	-0.022563417
31	0x3bf96f2a	0.0076121287
32	0x3c330922	0.01092747
33	0x3bd053ac	0.0063576307
34	0x3c92aea4	0.01790554
35	0x3aa4f5e5	0.0012585489
36	0xbd10a047	-0.035309102
37	0x3d3357d2	0.043784924
38	0xbd4e307c	-0.050339207
39	0xbcf37985	-0.029721031
40	0xbc767663	-0.015042874
41	0xbc590653	-0.013246137
42	0xbcb60c86	-0.022222769
43	0x39d6971a	0.0004092984
44	0xbd3f7f9e	-0.046752565
45	0xbced0c04	-0.028936394
46	0x3d230df3	0.039808225
47	0xbc35fbcd	-0.011107397
48	0x3d1aa667	0.03775635
49	0xbbe85f3d	-0.0070914314
50	0xbc3ca07b	-0.011512871
51	0x3d222a34	0.03959103
52	0xbd212903	-0.039345752
53	0xbcee8037	-0.029113872
54	0xbbf4b67b	-0.0074680424
55	0x3c16732f	0.009182735
56	0x3cbc5908	0.022991672
57	0xbadd60da	-0.0016889826
58	0x3c527804	0.012845997
59	0xbc0034a0	-0.007825047
60	0xbd8fdd35	-0.07024614
61	0x3c6f2fb8	0.014598779
62	0xbd735b14	-0.05941303
63	0x3ca18384	0.019716032
64	0x39b6a5cd	0.00034837276
65	0xbba3752c	-0.004988333
66	0xbd17267d	-0.03690194
67	0x3c8f5ada	0.017499376
68	0x39a86ab4	0.00032122957
69	0xbbf8cda6	-0.0075928746
70	0x3c9f0e9d	0.019416148
71	0xbd1e872d	-0.038703132
72	0xbc9c17a5	-0.019054243
73	0x3c41c537	0.011826805
74	0xbc0cf9a4	-0.008604441
75	0xbc17087d	-0.009218332
76	0x3c8cd1d2	0.017189894
77	0xbcb15ccb	-0.021650692
78	0xbc0d9cb8	-0.008643322
79	0xbcee4310	-0.029084712
80	0xbd22a56c	-0.03970854
81	0x3c5730e6	0.013134217
82	0x3c21af74	0.009868491
83	0xbd7cec77	-0.061748948
84	0x3b780a23	0.0037847839
85	0xbcb4a871	-0.022052975
86	0xbcb66463	-0.022264665
87	0x3ca05012	0.01956943
88	0xbd7e11ef	-0.06202882
89	0xbd249301	-0.040179256
90	0xbc94c5a9	-0.018160658
91	0x3c5ea4e0	0.013589114
92	0xbcfeb2db	-0.031091144
93	0xbcdd7290	-0.027032167
94	0xbcfffe09	-0.031249063
95	0xbc72d674	-0.014821637
96	0x3cb4ca0e	0.022069003
97	0xbda6b06e	-0.0813912
98	0xbcb96cd3	-0.0226349
99	0x3b8c5204	0.004282238
100	0xbd08e090	-0.033417284
101	0xbcaa94ba	-0.020822871
102	0x3c15b39c	0.0091370605
103	0x3c0a48e2	0.008440228
104	0xbbb4b0f8	-0.0055142604
105	0xbcf73ac7	-0.030179394
106	0x3cba2a47	0.022725238
107	0x3cafd223	0.021462506
108	0xbd19af13	-0.03752048
109	0xbd4010a0	-0.046890855
110	0xbc00f5e3	-0.007871124
111	0xbcbab70a	-0.022792358
112	0xbbc610ea	-0.006044497
113	0x3b9e0d98	0.004823398
114	0xbcb7853e	-0.022402402
115	0xbd8825d3	-0.066478394
116	0x3c928663	0.017886346
117	0xbc344e0d	-0.011004937
118	0xbc817bb5	-0.015806058
119	0xbcca2064	-0.024673648
120	0xbcf9c920	-0.030491412
121	0x3c9b8c80	0.018987894
122	0xbcad4e0b	-0.021155378
123	0x3bd62230	0.006534837
124	0x3bca2702	0.006169201
125	0xbce4972c	-0.027904116
126	0xbc309e5b	-0.010779942
127	0xbcc78799	-0.02435665

Linear2.weight f4 [128, 128]
0	0x3d5bbc93	0.053646635
1	0xbe4a594b	-0.19760625
2	0x3d0e8892	0.034798212
3	0x3d964a4a	0.07338388
4	0xbe55530a	-0.20832458
5	0xbeb03223	-0.3441325
6	0x3e12e8d7	0.14346634
7	0xbdfc926f	-0.123326175
8	0x3c8dbe66	0.017302703
9	0x3e32c60e	0.17458364
10	0xbdf4c2d0	-0.1195122
11	0xbe399e55	-0.18126805
12	0xbe926325	-0.28591266
13	0xba390d38	-0.00070591597
14	0x3da1e239	0.07904477
15	0x3d206c1d	0.039165605
16	0x3e85d075	0.26135603
17	0x3e99b90f	0.30024
18	0x3cd95742	0.026530866
19	0x3de50e4d	0.11184368
20	0xbddc7414	-0.10764328
21	0x3ca35579	0.019938217
22	0xbc9f3369	-0.019433694
23	0x3d9cf3dc	0.076637
24	0x3c4e2e51	0.012584285
25	0xbe4cb124	-0.19989449
26	0xbda90dc9	-0.082545824
27	0xbe3c36e7	-0.18380319
28	0xbeb2b908	-0.34906793
29	0xbead7f0f	-0.33886
30	0xbe679a78	-0.22617519
31	0xbea0e919	-0.3142784
32	0xbde54947	-0.11195617
33	0xbe0adcbb	-0.13560764
34	0x3dcc0cca	0.09963377
35	0x3e3bc91e	0.18338439
36	0x3dd2bf64	0.10290411
37	0xbd9304a7	-0.07178622
38	0x3e0ff183	0.14056973
39	0x3e01d2e3	0.12678103
40	0x3b3f9cd9	0.0029237776
41	0x3ba2ed13	0.004972109
42	0xbcdd7827	-0.027034832
43	0x3e5fe4be	0.21864602
44	0xbd30d51f	-0.043171998
45	0xbe9ae5d8	-0.30253482
46	0x3d299b94	0.041408136
47	0x3d2092e0	0.03920257
48	0xbec4297e	-0.38312906
49	0xbe8dcace	-0.2769379
50	0x3da47c07	0.08031469
51	0x3db56b1e	0.088583216
52	0xbe48c6b6	-0.19607052
53	0xbea5f39c	-0.32412422
54	0x3d1db385	0.03850128
55	0x3bfd04e1	0.007721529
56	0xbe228359	-0.15870418
57	0x3d9274e0	0.071511984
58	0xbd934b33	-0.071920775
59	0xbd8268a5	-0.063676156
60	0xbe4f0200	-0.20215607
61	0x3d967b79	0.07347769
62	0x3d21ba87	0.039484527
63	0xbe2cecb2	-0.16887167
64	0x3d456c99	0.04819927
65	0x3da7fb5a	0.082022384
66	0x3e5b5aa0	0.2142129
67	0xbe011250	-0.12604642
68	0xbdf40eb2	-0.119168654
69	0xbe15396f	-0.1457269
70	0xba0c6333	-0.0005355358
71	0xbd3052a5	-0.043047566
72	0x3d862d9e	0.065516695
73	0xbe646f8d	-0.22308178
74	0xbd0df4b9	-0.034657214
75	0xbe4d48b6	-0.20047268
76	0xbe687b96	-0.22703394
77	0x3e05c7bf	0.13064478
78	0x3c9b88c2	0.01898611
79	0x3e6764a7	0.2259699
80	0x3e0c9ba6	0.1373125
81	0x3e59d891	0.2127402
82	0xbda8bdbd	-0.08239315
83	0x3e0cfdd1	0.13768698
84	0x3d030928	0.031991154
85	0xbc1ddd25	-0.0096352445
86	0x3debd9aa	0.115161255
87	0xbd909dba	-0.07061334
88	0xbe868e24	-0.2628032
89	0x3e348252	0.17627838
90	0xbcd430be	-0.025902148
91	0xbd09c1cd	-0.03363209
92	0xbeaa4a9d	-0.3326005
93	0x3e1a162c	0.1504752
94	0x3e470ba5	0.19438036
95	0xbe895751	-0.2682443
96	0xbe222056	-0.15832648
97	0xbcb08cfc	-0.021551602
98	0xbd1301c1	-0.035890345
99	0xbe9278e3	-0.28607854
100	0xbe5b0253	-0.21387605
101	0xbe1586bc	-0.14602178
102	0xbeb99c17	-0.362519
103	0x3bd22453	0.0064130216
104	0xbd98fb84	-0.07469848
105	0x3da51a30	0.080616355
106	0xbeb227e0	-0.34796047
107	0x3e123853	0.14279298
108	0x3e92193e	0.28534883
109	0xbec9e432	-0.39431912
110	0x3cb0b1fc	0.021569245
111	0xbe74e997	-0.23917232
112	0xbe1d26fa	-0.153469
113	0x3e65e75d	0.2245154
114	0xbdcc2c95	-0.09969441
115	0x3c2d8637	0.010591081
116	0x3dfa30be	0.12216328
117	0x3e2eab08	0.1705743
118	0x3e44bb11	0.19211985
119	0xbdb1ee05	-0.08687977
120	0x3b58220e	0.0032979283
121	0xbe7a4097	-0.24438702
122	0xbe419935	-0.189061
123	0xbe24b48c	-0.16084498
124	0xbe8c8456	-0.27444714
125	0xbec81db7	-0.3908517
126	0x3e16bad5	0.14719708
127	0x3de5e28a	0.112248495
128	0x3dd2ee75	0.10299388
129	0xbe3770a6	-0.17914066
130	0xbe35e0cf	-0.17761539
131	0x3dda9f0d	0.10674868
132	0xbd3b8196	-0.04577788
133	0x3c87d357	0.016580267
134	0xbe931dd5	-0.28733698
135	0xbca0e18b	-0.019638797
136	0xbd861c09	-0.06548316
137	0x3c0b6e15	0.008510132
138	0xbe5b4223	-0.21411948
139	0xbd90fc08	-0.07079321
140	0x3dedda17	0.11613863
141	0x3e82b2bb	0.25526986
142	0xbe9b40fd	-0.3032302
143	0xbe2777d0	-0.16354299
144	0x3e80880d	0.25103799
145	0x3cd4653e	0.025927182
146	0xbe149d19	-0.14513053
147	0x3e252a8b	0.1612951
148	0xbe184a98	-0.14872205
149	0xbe16a5f6	-0.14711747
150	0xbe16fc22	-0.14744619
151	0xbe8d7dca	-0.27635032
152	0xbf18a11a	-0.5962082
153	0x3b12adae	0.0022381353
154	0xbb1a7888	-0.0023570377
155	0x3e0bf037	0.13665853
156	0x3d27227d	0.040804375
157	0x3e3b0925	0.18265207
158	0x3d5c7e14	0.053831175
159	0x3e1159ef	0.14194463
160	0xbdb03c16	-0.086052105
161	0xbdf6ef5b	-0.12057372
162	0xbe57cc50	-0.21074033
163	0x3d0c70b3	0.034287166
164	0xbea186b4	-0.31548083
165	0xbdd20b23	-0.102560304
166	0xbceb7430	-0.028741926
167	0xbc003890	-0.007825986
168	0xbe8353cd	-0.25649872
169	0xbe60501d	-0.21905561
170	0xbdd5f43c	-0.10446975
171	0x3e39850d	0.18117161
172	0x3c4f5c36	0.012656262
173	0xbe26713d	-0.16254134
174	0x3e4a38a1	0.19748165
175	0xbea86488	-0.328892
176	0xbd4b4f03	-0.0496359
177	0xbed3a2ce	-0.41335148
178	0x3d7f5c48	0.062343866
179	0xbd32c218	-0.043642133
180	0x3e6fb861	0.23410179
181	0x3d03fa9f	0.032221433
182	0xbd039efe	-0.03213405
183	0x3df315e1	0.118694074
184	0x3d9e11be	0.07718228
185	0xbe87ddd3	-0.26536426
186	0xbea19359	-0.3155773
187	0xbe00bd57	-0.12572227
188	0x3d940d06	0.072290465
189	0x3dd83ab6	0.10558073
190	0xbd382c55	-0.044964153
191	0x3dcedbd4	0.10100523
192	0xbdcc9a6c	-0.09990391
193	0x3cdd94e1	0.02704853
194	0x3def47e5	0.11683635
195	0x3c57f96d	0.013182026
196	0x3de43210	0.11142361
197	0x3dc3905b	0.09549018
198	0xbd13f490	-0.036121905
199	0xbdaf7aee	-0.08568369
200	0xbe0eac8e	-0.13933012
201	0xba780b04	-0.00094620907
202	0xbd9dfa77	-0.07713788
203	0xbe5dff3e	-0.21679398
204	0x3e2d1135	0.16901095
205	0x3e652fb7	0.22381483
206	0xb9177af4	-0.00014446286
207	0x3e3e9cf1	0.18614556
208	0xbe80e5ca	-0.25175315
209	0xbdf96d71	-0.121790774
210	0x3e45ae1b	0.19304697
211	0x3e1d2ee0	0.15349913
212	0xbc282c5b	-0.010264481
213	0x3da2f5bc	0.07957026
214	0x3dcb69fd	0.09932325
215	0x3e578e0b	0.21050279
216	0xbe2f3fd7	-0.17114197
217	0x3d0147fb	0.031562787
218	0x3e8f1a31	0.2794967
219	0xbe1e9397	-0.15485989
220	0xbdf27e76	-0.11840527
221	0xbd84bf32	-0.0648178
222	0xbeb46907	-0.3523638
223	0xbe9cbbf4	-0.30612147
224	0x3d25036c	0.040286466
225	0xbd5d3531	-0.054005805
226	0xbd9bdf42	-0.076109424
227	0xbe0b5065	-0.13604887
228	0xbda50f81	-0.08059598
229	0xbdd5d383	-0.10440733
230	0x3dd07a59	0.10179586
231	0xbe22138e	-0.15827772
232	0x3ded8de2	0.115993276
233	0x3e7cccb0	0.24687457
234	0xbe11e8f1	-0.14249016
235	0xbd5f3d52	-0.05450184
236	0x3dcc85a4	0.099864274
237	0x3e32dacd	0.17466278
238	0xbc9272e4	-0.01787705
239	0xbd394dea	-0.04524032
240	0x3dfee6ae	0.124463424
241	0xbd28ae8b	-0.041182082
242	0xbe743d8f	-0.23851608
243	0x3ec3d024	0.38244736
244	0x3dd7e40c	0.10541543
245	0x3e08b833	0.13351516
246	0xbde1ffe8	-0.11035138
247	0x3d4ce4c4	0.050022855
248	0x3d1f6d86	0.03892281
249	0xbe529bda	-0.20567265
250	0x3e1a67db	0.1507868
251	0xbe1e0be3	-0.15434222
252	0xbe078b00	-0.13236618
253	0xbe081331	-0.13288571
254	0xbe80a6e2	-0.2512732
255	0xbe2f7bcf	-0.17137073

Linear2.bias f4 [128]
0	0xbd9353b1	-0.07193697
1	0x3d767aef	0.060175832
2	0xbc20dbb7	-0.009818009
3	0x3cf2555d	0.02958172
4	0x3da0e731	0.07856596
5	0xbbe3c651	-0.0069511314
6	0xbc443090	-0.011974469
7	0xbdadd7b1	-0.084884055
8	0x3d657d11	0.056027476
9	0xbcc7ee12	-0.024405513
10	0x3d0c3e5d	0.03423916
11	0x3c8dbb1d	0.017301137
12	0xbd53f902	-0.051751144
13	0xbdeff0b7	-0.117158346
14	0x3d82a7a8	0.06379634
15	0xbd5b3494	-0.05351694
16	0x3d24a0e1	0.04019249
17	0x3c8a0be7	0.016851379
18	0xbd4266eb	-0.04746143
19	0xbdd5f3ab	-0.104468666
20	0xbe0a8740	-0.13528156
21	0x3d96e42c	0.07367739
22	0x3c91e565	0.01780958
23	0x3c87d0e0	0.016579092
24	0x3b64b288	0.0034896452
25	0xbdb5caee	-0.088765964
26	0xbc9c12b9	-0.019051896
27	0xbd5bd87d	-0.053673256
28	0xbd2b4416	-0.04181298
29	0xbc2b8dae	-0.010470791
30	0x3d3c59f0	0.04598421
31	0xbd15d527	-0.03658023
32	0x3d60d9af	0.0548951
33	0x3bb69d16	0.0055729253
34	0xbc822514	-0.01588682
35	0xbd53473f	-0.051581617
36	0x3d77c1d3	0.06048758
37	0xbc584f8f	-0.013202562
38	0x3ccedca8	0.025251701
39	0x3ba6cf35	0.005090619
40	0x3bd520ec	0.0065041687
41	0x3cdbcf23	0.026832169
42	0xbd8daedd	-0.06918118
43	0xbcdee2da	-0.02720778
44	0xbc256e23	-0.010097059
45	0xbc28028b	-0.010254513
46	0x3d52e4c6	0.051487707
47	0xbde1b432	-0.11020698
48	0xbd8e4292	-0.06946291
49	0x3d2796ee	0.040915422
50	0xbd1541c2	-0.036439665
51	0x3d50fe44	0.051023737
52	0xbd8eb4e2	-0.069680944
53	0x3d316d03	0.043316852
54	0xbccef056	-0.025261085
55	0x3d548b9e	0.05189096
56	0xbc44c1b1	-0.01200907
57	0x3c9b3854	0.018947758
58	0xbd224609	-0.039617572
59	0xbd6f4c08	-0.05842212
60	0x3c41725f	0.011807053
61	0x3db34e42	0.08755161
62	0x3d9f2a6a	0.07771762
63	0xbb5f77f5	-0.00340986
64	0xbcb8e0b0	-0.022568077
65	0x3b20d5ac	0.002454142
66	0x3bf4cc4a	0.007470642
67	0x3d426807	0.04746249
68	0xbd48c154	-0.049012497
69	0xbd435f82	-0.047698505
70	0xbdeae8ca	-0.11470182
71	0xbd6c25c7	-0.057653215
72	0xbd7a1b38	-0.061061114
73	0xbd8d6607	-0.06904226
74	0x3bddca44	0.0067684967
75	0x3d1c1190	0.038102686
76	0xbd85ec56	-0.06539218
77	0x3d829eb1	0.06377924
78	0x3c83b29c	0.016076379
79	0x3d3aa47d	0.045567024
80	0xbd1613e4	-0.036640063
81	0x3c90b04a	0.017662186
82	0xbc826733	-0.01591835
83	0x3b8ae5a8	0.004238803
84	0xbd95a41c	-0.07306692
85	0xbc23f6ed	-0.010007602
86	0xbd96beaa	-0.07360585
87	0x3d85ccf3	0.065332316
88	0x3d2d0d81	0.042249206
89	0x3c40d427	0.011769331
90	0xbc4594f8	-0.012059443
91	0x3bbaf26c	0.0057051685
92	0x3c575736	0.013143351
93	0xbd60fe46	-0.054929994
94	0xbc7521fe	-0.014961718
95	0xbdb5dc90	-0.088799596
96	0xbd9369db	-0.07197925
97	0xbb78afd4	-0.0037946599
98	0xbcacbefc	-0.021087162
99	0xbd22f549	-0.039784703
100	0x3d4c7b75	0.049922425
101	0xbdde8534	-0.1086525
102	0x3d34b489	0.044117484
103	0xbc46aa67	-0.012125588
104	0x3c81955f	0.015818296
105	0x3b89806d	0.0041962177
106	0xbceb8988	-0.028752103
107	0xbdf7c225	-0.12097577
108	0x3d3cdd75	0.046109635
109	0xbdeeabea	-0.11653884
110	0xbb411ed2	-0.0029467833
111	0xbdc79365	-0.0974491
112	0xbc3c0e73	-0.011478054
113	0x3d14bc9c	0.036312684
114	0xbc9ea5d8	-0.01936619
115	0xbcffc7aa	-0.031223137
116	0xbcf57102	-0.029961113
117	0xbd23d632	-0.039999194
118	0x3c4ce0ad	0.012504739
119	0xbc93132e	-0.017953482
120	0x3d735617	0.059408274
121	0xbbfedf44	-0.00777808
122	0xbb78db3f	-0.0037972478
123	0xbcb5c8eb	-0.022190532
124	0xbd8c0200	-0.06836319
125	0x3d5a6b52	0.053325005
126	0x3dad0622	0.08448435
127	0xbcc44a80	-0.023961306

Linear3.weight f4 [128, 128]
0	0x3e544d02	0.20732501
1	0x3e210683	0.1572514
2	0xbd28b9b5	-0.04119273
3	0xbe2e3169	-0.17011036
4	0x3e326dce	0.174247
5	0x3e11823b	0.14209835
6	0xbd9238b7	-0.07139724
7	0x3e346748	0.17617524
8	0xbe21b4f9	-0.15791692
9	0xbeb4b664	-0.35295403
10	0x3d563dc7	0.05230501
11	0x3de22f18	0.11044139
12	0xbe3bf37e	-0.18354604
13	0x3c636ac3	0.013880434
14	0xbd55a341	-0.052157644
15	0x3e332722	0.17495397
16	0xbcf0185f	-0.029308496
17	0xbe565089	-0.20929159
18	0xbe8e3162	-0.2777205
19	0x3e50b684	0.20382124
20	0x3e0aaf59	0.13543452
21	0xbce3acd4	-0.027792372
22	0xbe1f1f40	-0.15539265
23	0xbed1e72f	-0.40996692
24	0xbe0c24c7	-0.13685904
25	0xbeb7a498	-0.35867763
26	0xbec509dd	-0.38484088
27	0xbe207dc2	-0.15672973
28	0x3e2abd71	0.16673829
29	0xbcaafb5f	-0.020871816
30	0xbc8df6fe	-0.01732969
31	0x3d2cbef8	0.04217431
32	0xbd1c65cb	-0.038183015
33	0xbe041c5f	-0.12901448
34	0x3eac7bea	0.3368829
35	0x3e6710fd	0.22565074
36	0x3e6dd385	0.2322522
37	0x3d4f1514	0.05055721
38	0x3d14f3ea	0.036365427
39	0xbe91aec7	-0.28453657
40	0xbeabdef2	-0.3356853
41	0xbe9bb43b	-0.30410942
42	0xbde88c5b	-0.11354896
43	0xbe8f7dc1	-0.2802563
44	0xbe901b32	-0.28145748
45	0xbe998720	-0.29985905
46	0x3e4a9544	0.19783503
47	0xbe9690f1	-0.29407457
48	0xbe8699fb	-0.26289353
49	0xbe02e77b	-0.12783615
50	0x3e4c43e4	0.19947773
51	0xbe0df353	-0.13862352
52	0xbe46be58	-0.19408548
53	0x3e88296b	0.265941
54	0xbdd4924b	-0.10379466
55	0xbe15e234	-0.14637071
56	0x3f0d264c	0.5513656
57	0xbdd9ee3b	-0.10641142
58	0xbe3a5770	-0.18197417
59	0xbd969fde	-0.07354711
60	0xbdce96fd	-0.100873925
61	0xbd76fa6b	-0.06029741
62	0x3de3a00a	0.111145094
63	0x3d8ef3fa	0.069801286
64	0xbdd7f31b	-0.105444156
65	0x3d833372	0.06406297
66	0x3ddbd99d	0.10734866
67	0xbc3c7cc2	-0.011504354
68	0xbdf04a39	-0.11732907
69	0xbd0dc06a	-0.03460733
70	0x3e297ffc	0.16552728
71	0x3d81ca80	0.06337452
72	0x3e1d2270	0.15345168
73	0x3e8bc261	0.27296737
74	0x3e99cb4d	0.3003792
75	0x3c9a959b	0.018870166
76	0x3e3a4f8b	0.18194406
77	0x3e2ce78a	0.168852
78	0x3f0bafe1	0.54565245
79	0xbee38cd1	-0.44443372
80	0x3f010c5b	0.5040948
81	0x3d4825f4	0.04886432
82	0xbece300e	-0.40271038
83	0x3b7f43cf	0.003895033
84	0xbf01f29f	-0.50760835
85	0xbda10ad3	-0.07863393
86	0x3c8b0813	0.016971624
87	0xbdf7d719	-0.121015735
88	0x3d42fd27	0.047604706
89	0xbeb39c53	-0.35080203
90	0x3ea88e8b	0.32921252
91	0x3e61c2fa	0.22047034
92	0xbe5265c3	-0.20546632
93	0xbbb9c452	-0.005669155
94	0xbe7d29d9	-0.24722995
95	0xbd627880	-0.0552907
96	0x3d9e9e52	0.07745041
97	0x3e24f9f4	0.16110975
98	0xbe0f9754	-0.14022571
99	0xbdfe35bf	-0.12412595
100	0xbcfadf47	-0.030624045
101	0x3d8bdc6f	0.06829154
102	0xbdc74258	-0.09729451
103	0x3dcb68b4	0.0993208
104	0x3e78f456	0.24311957
105	0xbe3358c8	-0.17514336
106	0x3e634de0	0.22197676
107	0x3c780f4c	0.015140366
108	0xbd47a0a0	-0.04873717
109	0x3daed38a	0.085364416
110	0xbc5a5d37	-0.013327888
111	0xbe5ae050	-0.21374631
112	0xbc95fbdc	-0.018308572
113	0xbe149fe7	-0.14514123
114	0xbc9b1663	-0.018931573
115	0x3d865e0e	0.06560908
116	0xbea286a0	-0.31743336
117	0x3e291f6e	0.16515896
118	0xbdda7cc7	-0.10668331
119	0x3e2c2fbd	0.16815086
120	0x3d34479f	0.044013616
121	0x3c9a4451	0.018831404
122	0xbdeffa89	-0.11717708
123	0x3df4d9fb	0.11955639
124	0xbe51dc3f	-0.20494173
125	0x3e11e272	0.14246538
126	0xbdb32e36	-0.087490484
127	0xbe49d2b9	-0.1970929
128	0xbe4af52a	-0.19820085
129	0x3dc93aa0	0.09825635
130	0xbe60392a	-0.21896806
131	0x3e253959	0.16135158
132	0xbe93c8ab	-0.28864035
133	0xbd1fdbaa	-0.039027847
134	0x3e4894a7	0.19587956
135	0x3cf52bee	0.029928174
136	0xbced99e1	-0.02900404
137	0xbdb12c10	-0.086509824
138	0xbdc5ffba	-0.096679166
139	0x3e1e099e	0.15433356
140	0xbe98a64e	-0.2981438
141	0xbee3f30d	-0.4452137
142	0xbdc96976	-0.09834568
143	0xbc33946e	-0.010960681
144	0xbed167b5	-0.40899435
145	0x3e961111	0.29309896
146	0xbe173374	-0.14765722
147	0xbe33658c	-0.17519206
148	0xbce56254	-0.028000988
149	0xbdf6a9c4	-0.12044099
150	0x3d62f6c4	0.055411115
151	0x3e12e114	0.14343673
152	0xbe550bc3	-0.20805268
153	0xbead268d	-0.33818474
154	0xbddb0f8b	-0.10696324
155	0x3ddcc28a	0.10779293
156	0x3e294571	0.16530396
157	0xbe558eda	-0.20855275
158	0xbdff3bb0	-0.12462556
159	0xbe4701b9	-0.19434251
160	0xbe1b750c	-0.15181369
161	0xbd375be7	-0.04476538
162	0xbea2ae39	-0.31773546
163	0x3e3eb6b4	0.18624383
164	0xbe37f025	-0.17962702
165	0x3d6914fa	0.05690477
166	0xbd2994dc	-0.04140173
167	0x3d27c50d	0.040959407
168	0xbe9fab1a	-0.31185228
169	0xbdc7c2ce	-0.09753953
170	0x3d813b96	0.06310193
171	0xbea71da2	-0.32639796
172	0x3e1376a5	0.14400728
173	0x3b05f05a	0.002043745
174	0xbda30043	-0.07959034
175	0xbe0eb0de	-0.13934657
176	0x3e6aad68	0.22917712
177	0xbe1326dd	-0.14370294
178	0xba731670	-0.0009273058
179	0x3d71789d	0.058952916
180	0xbc729fbe	-0.014808593
181	0x3c48900a	0.012241373
182	0x3db48320	0.088140726
183	0xbd9081e1	-0.070560224
184	0xbe173a33	-0.14768295
185	0xbd18f338	-0.037341326
186	0x3dd44d1e	0.103662714
187	0x3c5b3bba	0.013380939
188	0xbd3c8650	-0.046026528
189	0xbe8ca878	-0.2747228
190	0xbebfeeaf	-0.3748679
191	0xbe77172e	-0.24129936
192	0xbdf9cd55	-0.12197367
193	0xbd38306d	-0.044968057
194	0xbd79067a	-0.060797192
195	0xbe446fe4	-0.19183308
196	0x3e66c096	0.22534403
197	0x3d7da11f	0.061921235
198	0xbeb18a52	-0.34675843
199	0xbd6116d2	-0.054953404
200	0xbd6d8b6c	-0.05799429
201	0xbe2a8f5d	-0.16656251
202	0xbd879c1c	-0.066215724
203	0x3e6ad882	0.22934154
204	0xbcda4199	-0.026642608
205	0xbe26ae3c	-0.16277403
206	0xbe266e1f	-0.16252945
207	0x3de6cd8c	0.11269674
208	0x3e6fd2dd	0.23420282
209	0xbd082ffc	-0.033248886
210	0xbe279118	-0.16363943
211	0xbe17a75d	-0.14809938
212	0xbecb5cbf	-0.39719197
213	0xbe045a1a	-0.12924996
214	0xbd2a7d91	-0.041623656
215	0x3cefd0dd	0.029274398
216	0xbd93aab1	-0.07210291
217	0x3dd815b6	0.10551016
218	0xbdd76084	-0.10516456
219	0xbd752900	-0.059853554
220	0x3e4f9d10	0.20274758
221	0x3e190e66	0.14946899
222	0xbe9ac9d3	-0.30232105
223	0x3d3cad6c	0.046063825
224	0xbd362b3b	-0.04447482
225	0xbe17d386	-0.14826784
226	0x3dcdc936	0.100481436
227	0xbddb904a	-0.1072088
228	0xbbde0cb1	-0.0067764153
229	0xbd374db5	-0.04475184
230	0x3e1bc2af	0.15210985
231	0xbe414aba	-0.18876162
232	0x3d9eaba2	0.0774758
233	0x3c5ac0a7	0.013351596
234	0x3e83911f	0.25696656
235	0xbc66082b	-0.014040033
236	0x3dc09dc6	0.09405093
237	0x3dda512f	0.10660016
238	0xbe25de24	-0.16198021
239	0x3de8e20f	0.11371242
240	0xbdab64a6	-0.083688065
241	0xbe931c74	-0.28732646
242	0xbdb228e1	-0.08699203
243	0xbd3ae35b	-0.04562698
244	0x3cb71409	0.02234842
245	0xbe0aa961	-0.13541175
246	0x3e24ff58	0.16113031
247	0x3bb8fb57	0.0056451964
248	0x3dab7331	0.083715804
249	0xbef1c2ce	-0.47218937
250	0x3dad54ce	0.08463441
251	0x3e3fb6e3	0.1872211
252	0xbe6f5437	-0.23371969
253	0xbebbf0c1	-0.36707118
254	0x3e93b330	0.28847647
255	0xbd2a316f	-0.04155105

Linear3.bias f4 [128]
0	0xbd7b4573	-0.06134553
1	0x3d0c2b3c	0.03422092
2	0xbc89285b	-0.016742876
3	0x3c4f39b8	0.012648039
4	0xbdf08c78	-0.11745542
5	0x3ca9e9c1	0.020741345
6	0xbdf4567c	-0.11930558
7	0x3deb4810	0.11488354
8	0xbd1e4f51	-0.03864986
9	0xbda6b1fb	-0.08139416
10	0xbe445c0b	-0.19175737
11	0x3cef84c5	0.029238114
12	0xbe197245	-0.14984997
13	0xbdec7554	-0.11545816
14	0x3ccd9046	0.025093209
15	0x3cc3f91f	0.023922501
16	0x3c3c5da4	0.011496935
17	0x3d243d6b	0.040097635
18	0x3cf7c430	0.030244917
19	0x3d05136c	0.032489225
20	0x3e21a91a	0.15787163
21	0xbdbce490	-0.09223282
22	0x3e10b0a7	0.14129888
23	0x3d234a39	0.039865706
24	0xbd1fde15	-0.039030153
25	0x3cbafa0b	0.022824308
26	0xbdebd33d	-0.115149
27	0x3e0420e9	0.12903179
28	0x3df88c46	0.1213613
29	0xbe2050d8	-0.1565584
30	0xbc6eaee1	-0.014568062
31	0xbe06982d	-0.13143988
32	0xbe06bd8b	-0.13158242
33	0xbcd8e548	-0.026476517
34	0x3df36c62	0.11885907
35	0xbb490d2f	-0.0030678024
36	0xbc8a4517	-0.016878648
37	0xbdb2915a	-0.0871913
38	0x3d99db15	0.0751249
39	0xbcf91750	-0.030406624
40	0x3d5470a9	0.051865254
41	0x3da84a51	0.082173
42	0xbe260b84	-0.1621533
43	0xbdfbec50	-0.123009324
44	0xbd5eef2e	-0.05442732
45	0x3cbf5c67	0.02335949
46	0x3d0f846b	0.035038393
47	0xbc528a5d	-0.012850371
48	0x3e060b32	0.13090208
49	0x3a3f6464	0.0007301031
50	0x3d8bd18c	0.06827077
51	0x3d4ba8f3	0.04972167
52	0xbe2f04e5	-0.17091711
53	0xbd65471c	-0.05597602
54	0x3b2cacb7	0.0026348063
55	0x3d5b94f7	0.05360886
56	0x3de7d49c	0.11319849
57	0x3cc5e99d	0.024159247
58	0xbd099c3a	-0.033596255
59	0xbd9de773	-0.07710161
60	0x3dd0bd19	0.101923175
61	0x3dc821bc	0.09772059
62	0x3dfcd721	0.1234572
63	0xbdfa379b	-0.12217637
64	0x3cbf06d2	0.023318682
65	0x3d7ceb6d	0.061747957
66	0xbe0cb5d8	-0.13741243
67	0x3d5f00e6	0.054444216
68	0xbdbe8f05	-0.093046226
69	0x3d6023b1	0.054721538
70	0x3ddbfb2a	0.10741265
71	0x3e016daf	0.12639497
72	0xbda481b1	-0.08032549
73	0x3dcd146d	0.100136615
74	0xbc4a3a3c	-0.012342986
75	0xbd927cba	-0.07152696
76	0xbd5cdce8	-0.05392161
77	0x3da1bd0b	0.07897385
78	0x3d9a1e56	0.07525317
79	0x3dbfa74b	0.093580805
80	0x3d9e6500	0.07734108
81	0x3df93cf0	0.12169826
82	0x3dbdef4f	0.0927416
83	0xbd220a05	-0.039560337
84	0x3e0f5a60	0.13999319
85	0x3d4c214b	0.04983644
86	0x3d7166a8	0.05893579
87	0xbb3ebdb6	-0.0029104776
88	0x3da1ff4f	0.079100244
89	0xbb74fe2b	-0.0037382941
90	0xbdc459ea	-0.09587462
91	0x3d8c8e99	0.06863136
92	0xbdc0f207	-0.09421163
93	0x3de83a6c	0.11339268
94	0xbd72836a	-0.059207357
95	0x3dee6738	0.11640781
96	0xbcfb363a	-0.030665506
97	0x3d4489e9	0.047983084
98	0x3b13616b	0.0022488486
99	0xbdfb35c4	-0.12266114
100	0x3d827a6b	0.063710056
101	0x3d16189c	0.036644563
102	0x3d9dc38d	0.07703314
103	0x3d737ed7	0.059447136
104	0x3d87d660	0.06632686
105	0x3cec0c79	0.028814541
106	0x3d87aaa0	0.06624341
107	0xbbb026b8	-0.0053757094
108	0x3ce8d62f	0.028422443
109	0x3d99e3cf	0.07514154
110	0xbddb08d7	-0.106950454
111	0x3dc5df2d	0.09661708
112	0xbe03d2c7	-0.12873374
113	0xba8e61c4	-0.0010862877
114	0x3d8ce60b	0.06879815
115	0xbdafacc9	-0.08577878
116	0x3dafc7df	0.08583044
117	0x3c8446d7	0.01614706
118	0x3d42682b	0.047462624
119	0xbd00316c	-0.031297132
120	0xbd48a6db	-0.04898725
121	0x3e0b4a99	0.13602675
122	0x3d9b4b06	0.07582669
123	0x3d9d3ee7	0.07678013
124	0x3d964ec4	0.07339242
125	0x3e177a4e	0.1479275
126	0x3c021618	0.007939838
127	0x3dd4ac6e	0.10384451

Linear4.weight f4 [1, 128]
0	0x3f2f3ba3	0.68450373
1	0xbeb821ab	-0.35963187
2	0xbdbb305f	-0.091400854
3	0xbd8a618c	-0.06756887
4	0xbd89dff5	-0.067321695
5	0x3e9514e3	0.29117498
6	0xbef7d99e	-0.48408216
7	0x3dcb66e2	0.09931733
8	0x3f0ab41e	0.54181087
9	0xbe02b2dd	-0.12763543
10	0x3e54097f	0.20706747
11	0xbe847ad2	-0.25874954
12	0xbed284b6	-0.41116875
13	0xbea4c2e3	-0.32179937
14	0x3ed1dfb9	0.40991
15	0xbd2fa739	-0.042884085
16	0xbefbcc4d	-0.49179307
17	0x3e71e65b	0.2362303
18	0xbe11ada0	-0.14226389
19	0x3e159d38	0.14610755
20	0x3e2fbdc1	0.17162229
21	0x3eadd110	0.33948565
22	0x3e664652	0.22487763
23	0x3eb7f4ac	0.35928857
24	0x3e9b05ce	0.30277866
25	0x3e65ed3c	0.22453779
26	0xbe3406eb	-0.17580764
27	0x3e5d54ee	0.2161443
28	0x3ebe1919	0.37128523
29	0xbe2b5887	-0.16732989
30	0xbe15667a	-0.14589873
31	0xbeb70713	-0.35747585
32	0xbd8367b1	-0.06416262
33	0xbd5325d0	-0.051549733
34	0xbe66ced5	-0.22539838
35	0x3e2e3277	0.17011438
36	0xbf5eeb63	-0.8707792
37	0x3f371be7	0.7152695
38	0x3e7c3f65	0.24633558
39	0x3dde2e01	0.10848618
40	0xbd3bac31	-0.04581851
41	0x3e880ded	0.26573125
42	0xbe50f51c	-0.20406002
43	0xbe8bb3bd	-0.27285567
44	0xbd4a4ef7	-0.049391713
45	0xbd2a0a28	-0.041513592
46	0xbe1de9ab	-0.15421169
47	0xbd806114	-0.06268516
48	0x3e00cafa	0.1257743
49	0xbead074f	-0.3379464
50	0x3e22f14f	0.15912364
51	0xbd24d5e2	-0.040243037
52	0xbdaeaa0f	-0.0852853
53	0xbe59daba	-0.21274844
54	0x3e8f9cf7	0.28049442
55	0x3ea88e7c	0.32921207
56	0x3e738be3	0.23783831
57	0x3e8717d2	0.2638536
58	0xbeb15698	-0.34636378
59	0xbdd1e1b5	-0.10248128
60	0x3ecc4a3e	0.39900392
61	0x3e8750a2	0.26428705
62	0x3e746ae6	0.23868904
63	0xbe21e886	-0.15811357
64	0xbf00cf55	-0.50316364
65	0xbdee0f02	-0.11623956
66	0xbdc62e94	-0.09676853
67	0xbd865af0	-0.06560314
68	0x3ef0b7b6	0.4701516
69	0x3e9da1b6	0.30787438
70	0x3e6dac57	0.23210274
71	0x3e34cb37	0.17655645
72	0x3f114c8b	0.5675742
73	0xbe47d8d6	-0.1951631
74	0x3e126969	0.14298023
75	0x3ebab90a	0.364693
76	0xbe175d98	-0.14781797
77	0x3dbfdde2	0.09368493
78	0xbe294942	-0.16531852
79	0x3e416437	0.18885885
80	0x3e78b2b7	0.24286924
81	0x3ec0fa20	0.3769083
82	0xbdbcf0dc	-0.09225628
83	0x3d8d8c39	0.06911511
84	0xbe59b83f	-0.2126169
85	0xbe88812e	-0.26661056
86	0x3e9a5a7d	0.30147162
87	0x3eba137a	0.36342984
88	0xbdbe2a55	-0.09285418
89	0xbd99d720	-0.07511735
90	0xbe696c1b	-0.22795145
91	0x3e6a19de	0.2286143
92	0x3d4355db	0.0476893
93	0x3e8d7c27	0.27633783
94	0xbe813f3e	-0.25243562
95	0xbe252ecb	-0.16131131
96	0xbed558d3	-0.4166933
97	0x3e899d7a	0.26877958
98	0xbe70efe2	-0.23529008
99	0xbd526f3b	-0.05137561
100	0x3e7e6d65	0.24846418
101	0x3e93de17	0.2888038
102	0x3dbea324	0.0930846
103	0xbe2613ff	-0.16218565
104	0x3e353177	0.1769465
105	0x3e3bec2f	0.18351816
106	0x3e98965f	0.29802224
107	0x3d9738fb	0.07383915
108	0x3db08923	0.08619907
109	0x3e5f473f	0.21804522
110	0x3e3a20de	0.181766
111	0x3e97792e	0.2958464
112	0xbdbe8f4d	-0.09304676
113	0xbc7968d3	-0.015222746
114	0x3e925ee5	0.28588024
115	0x3d2eadd6	0.04264625
116	0x3dade0ae	0.0849012
117	0x3e663bbc	0.22483724
118	0xbe1ce987	-0.15323459
119	0xbc9df260	-0.019280612
120	0xbeb16ba9	-0.3465245
121	0xbe72020f	-0.23633598
122	0x3e7f9a17	0.24961124
123	0xbdd12266	-0.10211639
124	0x3e71ee1f	0.23625992
125	0xbe84172f	-0.25798938
126	0xbeae7eb0	-0.3408103
127	0x3db5c824	0.088760644
